PathNet for emotion recognition/result/mnist_model.ckpt (torch_old, 671301 bytes, 62 tensors)

m10.weight f4 [20, 784]
00000000: 00d1 5b3c aa25 02bd 1c02 61bc 8009 f139
00000010: ee0a c6bc b135 0f3d 25f3 053d 5455 92bb
00000020: 6810 ea3b f02f 783c 808d 6c3a e5de d8bc
00000030: 7263 47bc c8db bdbc a0e5 db3b e4d4 5f3c
00000040: f0e1 933c f75f 8dbc 8a4d f4bc 55aa ccbc
00000050: da07 e5bc 9a57 c8bc f049 8d3b 1ec5 803c
00000060: 9ab4 ef3c 7872 6bbc 9c1a b3bc a8cb f33b
00000070: 40c2 aa3c 4e9e 0fbd 867c ee3c 3071 d83c
00000080: 80d6 db39 f6ab a63c 4664 de3c 0ae2 4fbc
00000090: 3c48 c83c 1825 0f3c b646 d83c 8e91 d8bc
000000a0: a45e 633c 5c6f 4bbc 3853 a7bc 6e95 ba3c
000000b0: 823d ae3c 6045 a73a 21b5 103d f2bf 59bc
000000c0: bc61 d5bc 9c52 15bc 6e6f 91bc 9010 233c
000000d0: 3354 debc 8af5 cf3c 044b 0f3c 5cd1 f8bc
000000e0: 905f 54bb 70f4 f93b ae85 a9bc 8c04 b83c
000000f0: 91f5 0c3d f86d efbc 3884 07bd c646 ee3c
00000100: 7b3e 0e3d 06ca e53c 090a 063d 9c08 bbbb
00000110: a716 0d3d 2433 8f3c b02e 0b3b 069f 72bc
00000120: f8f4 51bc f8c2 553c 039d 91bc a091 00bb
00000130: d438 073c 60dd d63b 54ab 633c 8632 1cbc
00000140: 6349 003d 0999 073d f013 4e3c f897 353c
00000150: ac09 d23c 6044 b13a 3c50 96bc 6443 7e3c
00000160: 185c bc3c 9626 d53c d29c 25bc f8a9 8e3c
00000170: 105e fc3b 9c29 0fbd 98b8 ab3b f2e9 16bc
00000180: d5ab bfbc e1e6 093d b78c 09bd a507 afbc
00000190: 00e3 fcb9 21f4 ffbc 9c5c 743c 2612 02bd
000001a0: fc97 bdbc fe62 ccbc 36f1 c63c 805c 583a
000001b0: 4036 973b 8ef1 acbc 7215 983c a0d3 9e3c
000001c0: b0d2 8cbc 4d25 0b3d 50ef 643b c55a bdbc
000001d0: e436 853c 4a15 e53c ba05 fabc a787 7ebd
000001e0: 9581 ffbc acbc 46bd 09d3 c7bc 9290 92bd
000001f0: 87cb aebd b452 92bd ce57 93bd a538 23bd
00000200: fad9 84bd 2025 f83c 4f1c c33d 0d7f 843d
00000210: 79e6 883d 6041 a3bd b978 62bd 37ff 7cbd
00000220: e373 f4bc 8eed 97bc e0b0 fa3b 6e07 6abc
00000230: 3e18 97bc 28fd 9a3c 5e45 ba3c 1e46 f73c
00000240: 3a30 b6bc 5cc5 f5bb d5c4 e2bc 4727 2fbd
00000250: deca c23d 0ff2 903d e90e 6e3d 2bfb 95bd
00000260: 5bcc 0fbd 44df 5fbd bd6e 37bd aaa2 24bd
00000270: 4480 8abd d5ed d2bc 1bce 7cbd 9852 edbc
00000280: 66f0 053d b3f7 edbc d243 87bd 8372 3dbd
00000290: 20fa 123b 5e42 05bd 4c74 ca3c 5a94 e3bc
000002a0: 4e90 f53c 824b ea3c 053e a0bc f874 a53b
000002b0: 7841 e3bc 801c 36bc 5b75 1f3d 2294 d93c
000002c0: e76d d23c 8e1e 463d fe0c 5c3d 3996 3fbd
000002d0: 3eb1 e0bc a417 86bd 2a0c b9bd 8392 84bd
000002e0: 22b0 bfbd b107 a6bd 1881 2bbd 7d68 d5bc
000002f0: 3e2d 73bd 2c11 1abd 5cee 9abd 8206 5abd
00000300: b67d f83c 9c78 bebb 71ba 0f3d 4667 ca3c
00000310: 8a30 f5bc 133f 93bc 9034 d3bc c862 bcbb
00000320: b09d 9fbc 4f0e 013d bf1a 923d 2c22 193d
00000330: e29c b63d b6a7 8e3d 584e b0bd 1024 50bd
00000340: 0b8b 97bd a146 86bd 24c0 60bd 989d 5abd
00000350: 5cb5 a1bd 6796 60bd e537 96bd 7f84 fdbc
00000360: 01b7 c2bd dc69 b3bd 6a0c 2abd a90e 63bd
00000370: 3f1b 9abd a8e0 a03c 1260 853c f06d b83b
00000380: 6e3c f13c 4a35 95bc c8cf 823b b879 973b
00000390: 2f06 09bd c71f 443d abb4 5f3d 810c 653d
000003a0: 8bbf b7bd 67bb 1dbd 8833 53bd 4840 e0bc
000003b0: 7160 1ebd 7b11 9cbd 2744 49bd e433 3dbd
000003c0: b5cf 09bd 47cb d5bc d1b0 a3bd 8e61 20bd
000003d0: 3ee0 50bd 725d b1bd 4d14 0bbd 175a fabc
000003e0: fccd acbd 234f ecbc aeda e33c 5c5d 0f3c
000003f0: 582a 3cbc a8e7 e6bc 5a73 aabc e329 01bd
0.013416529 -0.0317742 -0.013733413 0.0004597418 -0.024175134 0.034963313 0.032702584 -0.0044657383
0.007143069 0.015148148 0.00090237707 -0.026473472 -0.012169706 -0.023176089 0.006710723 0.013661597
0.018052071 -0.017257674 -0.02982213 -0.024983564 -0.027957845 -0.024455834 0.0043117926 0.015718993
0.029260922 -0.014370553 -0.021863274 0.007440049 0.020844579 -0.03506308 0.029112112 0.02642116
0.0004193075 0.02034567 0.027147423 -0.012688169 0.024448507 0.008736871 0.026400905 -0.026436593
0.013877545 -0.012416687 -0.020425424 0.022776332 0.021269564 0.0012761764 0.035328988 -0.013290392
-0.02604758 -0.009113934 -0.01775333 0.009952679 -0.027139759 0.025385637 0.008745912 -0.030373268
-0.0032405593 0.007628016 -0.020693626 0.022463106 0.034413878 -0.029227242 -0.033085078 0.029086482
0.034727555 0.028050434 0.032724414 -0.0057078134 0.03444543 0.01748044 0.0021237545 -0.014808422
-0.012814753 0.013046972 -0.017775064 -0.001961805 0.008253295 0.0065571517 0.013895828 -0.00953353
0.031319987 0.03310493 0.012577996 0.011083595 0.025639378 0.0013524406 -0.018348806 0.015518997
0.022993132 0.026019376 -0.01010819 0.017415032 0.007701643 -0.03495179 0.005240511 -0.00921105
-0.023397366 0.03366745 -0.03358146 -0.02136595 -0.00048234314 -0.03124434 0.014914658 -0.03175559
-0.02314376 -0.024949547 0.02428494 0.00082535297 0.0046146214 -0.021111276 0.018564913 0.01938802
-0.017190307 0.03397112 0.003493268 -0.023114571 0.016261525 0.027964253 -0.030520309 -0.062141087
-0.03118972 -0.048519775 -0.024392622 -0.07156481 -0.085349135 -0.071446806 -0.07194482 -0.039848942
-0.06486888 0.03029114 0.09526884 0.064695455 0.06684584 -0.07971454 -0.05529091 -0.06176683
-0.029840415 -0.018545892 0.0076504797 -0.014283998 -0.018444177 0.018919542 0.022738155 0.030184802
-0.022239793 -0.0075003337 -0.027681747 -0.042762067 0.0951135 0.07077419 0.05811969 -0.07323297
-0.035106998 -0.054656282 -0.044783343 -0.04019419 -0.06762746 -0.025748173 -0.061719995 -0.028970048
0.032699965 -0.029048776 -0.066047326 -0.046251785 0.0022426918 -0.032533996 0.024713658 -0.0277807
0.029976036 0.028600458 -0.019560823 0.005049344 -0.027741179 -0.011115193 0.03893028 0.026559893
0.025687171 0.048368983 0.053723328 -0.046774123 -0.027428266 -0.06547478 -0.09035523 -0.064732574
-0.093597665 -0.08106936 -0.04187116 -0.0260508 -0.05936932 -0.037614033 -0.07564995 -0.053228863
0.030333381 -0.0058127176 0.035089914 0.024707448 -0.029930372 -0.017974412 -0.0257819 -0.0057490803
-0.019484371 0.031507786 0.07134008 0.037386104 0.08916642 0.06965582 -0.08608693 -0.050815642
-0.07399567 -0.0655644 -0.05487074 -0.05337295 -0.0789592 -0.054830935 -0.0733488 -0.030946968
-0.095075615 -0.087604254 -0.041515745 -0.055433903 -0.07524728 0.019638374 0.016281161 0.00562834
0.02944776 -0.018213887 0.0039920546 0.0046226643 -0.033453163 0.047881868 0.054615658 0.055920128
-0.08972081 -0.0385088 -0.051562816 -0.027374402 -0.038666192 -0.07620522 -0.04913726 -0.046192065
-0.03364535 -0.026097907 -0.079927094 -0.039155535 -0.050995104 -0.086604014 -0.033954907 -0.030560536
-0.08437726 -0.02884633 0.027814236 0.008750286 -0.011484705 -0.028186634 -0.020806957 -0.031534087

m10.bias f4 [20]
00000000: 93ed 82bd 7ca6 2cbd 72e8 4dbd 0a3c 0cbd
00000010: 64b1 843d 3cb9 be3d bf6e b53d f6c8 97bd
00000020: 8b21 a03d 19d4 34bd 2f75 60bd 80ba 8bbc
00000030: 7aab 293c 8a6e c6bc fc64 533d 9803 14bd
00000040: c923 363d a5dc be3d 99cc 56bd 64db 9abd
-0.0639297 -0.04215096 -0.050270505 -0.034236945 0.06479147 0.093126744 0.08859014 -0.07411377
0.07818898 -0.044147585 -0.054799255 -0.017056704 0.010355825 -0.024222631 0.051609978 -0.03613624
0.04446772 0.09319428 -0.052441213 -0.07561377

m11.weight f4 [20, 784]
00000000: 70e2 f83b 4074 533a 7080 3e3c 0808 653c
00000010: 4be7 043d 7c66 66bc a616 f93c 4b49 10bd
00000020: 568f aa3c 60ac 22bc 205f dcbc 9679 953c
00000030: 985c 08bc 8052 363b 46cc e03c 4e1c 873c
00000040: 7876 36bc 1ce3 11bc 7cc7 c7bc 47fe 93bc
00000050: d626 bb3c ae05 67bc 6e07 41bc 5d23 05bd
00000060: af1a 10bd aa35 c33c 48e2 663c d5b2 0c3d
00000070: 5dd6 07bd 0038 a439 3e7b be3c 6e69 dfbc
00000080: e0cc baba 9484 1c3c b089 2a3c 6867 86bb
00000090: bcca d5bc c878 ed3b 0ef9 65bc fc70 10bc
000000a0: 5075 bbbc dad4 cabc 4452 6c3c 14c9 0a3c
000000b0: 6bed 0bbd b83c f6bb 24e3 5f3c 3c45 a5bc
000000c0: 87a8 023d b0e1 9e3c aee3 babc fcf6 713c
000000d0: 60d5 61bb be7b c03c 00dc 683c e004 c1ba
000000e0: a851 273c 8099 6cbb b87a aabb d065 8fbc
000000f0: 00a1 dabb 264c a03c dc8a b0bc 4e0e 18bc
00000100: 8468 0bbc 2046 b6ba 4c3b c5bc 9280 a43c
00000110: 60bd 153b 254c 82bc 15a0 f9bc 13ba fdbc
00000120: 6e41 3abc 4427 073c 479e 04bd cd94 02bd
00000130: 4669 20bc ae7a bbbc 83ed c6bc c89c d3bb
00000140: 50f0 353c 8030 833c f697 0cbd e467 883c
00000150: 5a7a d73c d687 ce3c 0c32 07bd 6a6d 53bc
00000160: 967e f43c beba ea3c 8830 fd3b f8e1 4cbc
00000170: f01e 40bb 86f1 d83c 50b1 1cbb 80aa 4ebc
00000180: c2e9 ff3c 44d5 1a3c 84da 4f3c bbde 0b3d
00000190: 61e3 093d 205d 393c 37d3 a1bc a604 39bc
000001a0: 0807 d83b 6108 053d 5029 563b b6eb 08bd
000001b0: e55d 0ebd 5e6b fd3c 22bf f93c 32e2 e13c
000001c0: e8ed 863c c57f acbc dccf 43bc 2efc 74bc
000001d0: 729b e23c d490 673c fc5b 67bc bb3c aabd
000001e0: e33e 64bd 9e5e 3cbd 329f b4bd e842 bebd
000001f0: c02d 6abd 5e78 65bd a2b4 79bd 34b4 bbbd
00000200: 1559 aabd 3464 293d 9134 9b3d 6674 683d
00000210: 91e9 a03d b5d4 f0bc 024d 39bd a9bb bdbd
00000220: 185e 4bbc f323 a7bc 001f 00bb 00ff 2039
00000230: 4a4f 9cbc 0a23 16bc 6217 d43c f856 aa3b
00000240: a3d8 0c3d 0061 9fbb 7b2a a5bd ecd2 e9bc
00000250: 6f19 80bd e5a2 50bd 4370 62bd 7556 0abd
00000260: ae43 dabc 75b6 8bbd 8411 93bd ed4a d2bc
00000270: ddd6 babd 88c4 fabc 3917 2ebd 9cc4 343d
00000280: 8e05 d93c a871 08bd 1e7a 7cbd 83ca aebd
00000290: 70da 5e3b ac23 863c d03a d83b 0883 8dbb
000002a0: 7000 db3c bc81 773c 00b4 4c3c 7938 083d
000002b0: 001c b8b9 ab27 0d3d 9c08 5ebd e514 a0bd
000002c0: b5c2 a8bd 4534 b0bd 92f6 06bd b142 a8bd
000002d0: 9f42 84bd daa8 05bd 8d06 97bd 42ce 82bd
000002e0: 8fd1 b9bd 5d47 99bd 5d12 73bd 4490 9abd
000002f0: e155 28bd 9105 b2bd df13 73bd cf79 96bd
00000300: 3196 f5bc 3ea3 f4bc 20a8 01bd cf04 09bd
00000310: eed4 53bc 7c0e fabc 30b3 84bc 88ad d2bc
00000320: 525a ea3c 5e35 873c a586 45bd 0820 9cbd
00000330: e578 34bd 39a2 bbbd c227 cbbc afeb 92bd
00000340: a655 d4bc b085 41bd 8c09 34bd e7f4 a1bd
00000350: da59 87bd ca36 83bd 1158 2cbd 9cf3 14bd
00000360: 1191 98bd 40fd 14bd 7f17 92bd 9cbe 03bd
00000370: f889 74bd e4a4 f5bb c8a3 c4bb 705f 333c
00000380: eeb0 4cbc f81d a4bb fa09 a4bc 003d 77bc
00000390: 5180 103d fad5 c4bc 911d 0abd 4acd 4dbd
000003a0: 0d5d d0bc 3798 c0bd e68d 05bd c3a3 36bd
000003b0: 95ca 64bd 84a0 7fbd 6489 c3bd 7491 babd
000003c0: e59d afbd 2fe5 92bd 21a5 38bd e16a 79bd
000003d0: f794 8dbd eb79 21bd ac64 25bd b4bb a4bd
000003e0: 5908 4dbd 38f8 dbbc 0c44 cebc 7a0f eebc
000003f0: 2316 d6bc b297 9a3c 0e5c c13c c8cc b8bb
0.007595353 0.0008066334 0.011627302 0.013978966 0.03244714 -0.01406252 0.030406307 -0.035226148
0.020820301 -0.009928793 -0.026900828 0.018246453 -0.008322857 0.002782017 0.027441155 0.016492989
-0.011136644 -0.008904245 -0.024387114 -0.018065585 0.022845667 -0.014100475 -0.0117815565 -0.03250443
-0.035181697 0.0238293 0.014092036 0.034350235 -0.033163417 0.0003132224 0.023252126 -0.027271952
-0.0014251731 0.009553093 0.010408804 -0.0041016825 -0.026097648 0.0072470643 -0.01403643 -0.008816
-0.022883087 -0.024759699 0.0144239105 0.008470792 -0.034161966 -0.0075145625 0.013664994 -0.020174615
0.031899 0.019394726 -0.022813644 0.014768358 -0.0034459457 0.023496505 0.014212608 -0.0014726184
0.010212339 -0.0036102235 -0.0052026175 -0.017504603 -0.0066720247 0.01956756 -0.021550588 -0.009280754
-0.008508805 -0.0013906397 -0.024076127 0.020080838 0.0022848472 -0.01590545 -0.03047184 -0.030972516
-0.011368139 0.008249108 -0.032377508 -0.03188019 -0.009790724 -0.022885647 -0.024283176 -0.0064578988
0.011104658 0.016014338 -0.03432461 0.016651101 0.026303459 0.025211256 -0.033006713 -0.012904504
0.029845517 0.028653499 0.0077267326 -0.012505047 -0.0029315315 0.026482355 -0.0023909397 -0.012613893
0.031239394 0.009450261 0.0126863755 0.03414796 0.03366411 0.011313707 -0.019754035 -0.011292612
0.006592635 0.032478694 0.0032678433 -0.033427916 -0.034757514 0.030934986 0.030486647 0.027573679
0.016470864 -0.021057019 -0.011951413 -0.014952702 0.027662013 0.014133651 -0.014121052 -0.08312365
-0.055724036 -0.04598867 -0.088194266 -0.09290105 -0.057172537 -0.056022994 -0.06096328 -0.091652304
-0.08317772 0.041355327 0.075783856 0.05675163 0.07857049 -0.029398302 -0.045239456 -0.09264309
-0.01241257 -0.020402884 -0.0019549727 0.00015353784 -0.019080777 -0.009163627 0.025890056 0.0051983558
0.03438629 -0.004863858 -0.08064743 -0.028542958 -0.06254851 -0.0509366 -0.055282842 -0.033773858
-0.0266436 -0.0682191 -0.07181075 -0.025670493 -0.09123013 -0.030611292 -0.042502616 0.044132814
0.026491906 -0.033311516 -0.061639898 -0.0853472 0.003400471 0.016374432 0.006598808 -0.0043185987
0.026733607 0.015106615 0.012494087 0.03325698 -0.00035116076 0.03446166 -0.05420743 -0.07816485
-0.082402624 -0.086037196 -0.03294999 -0.082158454 -0.064580195 -0.032631733 -0.07374296 -0.06386997
-0.09073173 -0.074843146 -0.059343684 -0.07547048 -0.041097526 -0.08692468 -0.059345122 -0.07347452
-0.029978843 -0.029862996 -0.031654477 -0.03345185 -0.012929184 -0.030524485 -0.016198725 -0.025717512
0.028607521 0.01650494 -0.04822411 -0.07623297 -0.044060607 -0.09161801 -0.024799231 -0.07173859
-0.025919747 -0.047246635 -0.043954417 -0.079080395 -0.06608935 -0.064069346 -0.042076174 -0.036365137
-0.07449544 -0.03637433 -0.07133388 -0.0321642 -0.05970189 -0.007496463 -0.0060009696 0.010948047
-0.012493355 -0.0050084554 -0.020024288 -0.015090227 0.035278622 -0.024027813 -0.033719603 -0.050244607
-0.025434995 -0.09404033 -0.032606028 -0.04458977 -0.05585726 -0.06240894 -0.095476896 -0.09109774
-0.08575038 -0.071726196 -0.045079354 -0.060892943 -0.069131784 -0.03942291 -0.04037921 -0.08043614
-0.05005679 -0.026851758 -0.025178932 -0.029060114 -0.026133602 0.018871162 0.023603465 -0.005639646

m11.bias f4 [20]
00000000: f62b a0bd d451 b7bd 856e 2bbd 873b fdbc
00000010: 7033 b8bd d545 5a3d 8ed0 3bbd 5d3a 5cbd
00000020: 28c8 963d 1062 3dbd 30bb cbbd 37e2 c8bd
00000030: 26b3 82bd d64d 47bd 6370 993d c571 9bbd
00000040: 2510 94ba 7bdb 943d e079 8dbd f928 00bd
-0.07820885 -0.08951154 -0.041853447 -0.030912174 -0.08994186 0.053289253 -0.04585319 -0.053766597
0.073623955 -0.046236098 -0.099478126 -0.09808772 -0.06381826 -0.048658215 0.07492139 -0.07590059
-0.0011296315 0.07268425 -0.069080114 -0.031289075

m12.weight f4 [20, 784]
00000000: 0093 be3c 9050 96bc 2709 093d d01e d83c
00000010: 1a53 cb3c ae14 03bd afe0 073d 863e 30bc
00000020: b0fd 25bb 80a0 d1bc 5c0b bbbc c6db 1ebc
00000030: 4aee 2cbc 37bb 8dbc fcbc 963c 1281 f03c
00000040: 77d3 093d d845 903c 177f 0fbd 7a26 853c
00000050: b42f 073c 8ea9 0fbc 8e21 10bc 26b2 06bd
00000060: f028 04bb 9811 42bc 00f2 c1ba a045 cf3c
00000070: dc23 9dbc f028 bfbb 08d8 323c 8c1a debc
00000080: 10cf 2bbb b0a8 9cbb b439 883c 5e5c bcbc
00000090: 9ed2 943c 0e26 f93c ae08 cf3c 80e8 d33b
000000a0: b522 adbc 2ee6 a8bc 5810 a53b a6d5 02bd
000000b0: 2a47 f13c 00ec 003b e603 1bbc 1cf1 71bc
000000c0: 6289 d33c 68b5 de3b b4e5 453c a4ee 03bd
000000d0: be6d f73c 8aea 04bc d736 0d3d 70e9 753b
000000e0: 6abb ea3c b02a 9dbc bad0 d1bc 4ea4 fa3c
000000f0: 5083 a23c dc54 843c fd27 033d 983b 2ebc
00000100: 2014 6a3b a5ec cdbc fefe ae3c 3819 cd3c
00000110: 809f 41bc a6cb ec3c b046 fabb 44c4 903c
00000120: 06b4 ef3c 340e 79bc 30e7 313c 0bc3 033d
00000130: 7e71 c03c a072 adba 9c0b 03bc 9c06 a3bb
00000140: e5df 86bc 7c6f 11bc c854 c3bb 50f2 98bc
00000150: b6f3 c33c 00ba 023b 3a67 9abc 7808 893b
00000160: a8c4 8f3b 0002 0d3b 529b 40bc 86f2 7dbc
00000170: 243a 923c d4c0 483c 98ac f4bc 001d ccbb
00000180: 802b 6eba 54a9 78bc b8e4 0bbc 1802 5bbb
00000190: 10dc fd3c 14a7 32bc 0c72 4b3c bee6 bfbc
000001a0: fcba bd3c ae9f d33c 78d0 863c b078 8ebc
000001b0: 2070 e53a 673a 9bbc 555a 81bc 52b7 64bc
000001c0: 5c49 6bbc fe43 a73c f02b 4dbb 00a7 243b
000001d0: e0b0 bdbc 80db 84bb f5f6 8abc 58b4 c7bc
000001e0: 33cf 103d b888 ebbc 881a 2c3c c875 ae3c
000001f0: 1e0b 04bd 7254 b7bc 24f7 2ebc 0e93 f4bc
00000200: 9b87 d13b fe31 9cba 6cca 043d c1c2 d43c
00000210: 5fa1 30bc 0f0a 093a e537 b4bc bc7c 643c
00000220: b87c f13b 2a0c 883c 19cc 0a3d a25e e23c
00000230: b0ea cf3c b020 463b 3c6e 00bd 6831 acbc
00000240: 09ab 053d fcf7 82bc 9009 2a3b 4c18 a4bc
00000250: 624a c1bb 7948 7ebc bf9a b03a c16a e6bc
00000260: d963 27bc f3dd 153c 6995 0bbd 236f 8d3c
00000270: 5106 3fbb 995e be3c b3d3 e3bc 960c 50bc
00000280: 6a71 0abd 6822 0bbd 5e70 b2bc 301f ad3b
00000290: 7e05 de3c b25b c03c 08ba c4bb f00c 6a3c
000002a0: bebd fbbc 7cff 3a3c 262b 2bbc 1e71 ae3c
000002b0: f0c2 57bb 587f ad3c 0038 2838 1c22 ca3c
000002c0: cfd9 0abd f0cd ec3c a9da ec3b cbc9 1ebc
000002d0: 2a92 553c 9378 f139 1315 d1bc c58b b23b
000002e0: c4b9 c5bc a019 9f3b ea21 dabc 0ff0 553c
000002f0: 96bd 6bbb 2b75 dfbc a00d 87bc 78da 733c
00000300: be01 e53c a088 ae3a 23d5 0d3d 20cb 7abc
00000310: a0d7 0fbc 85dc e8bc d8bd 0c3c 8036 28bc
00000320: 9621 c53c 8078 1fbc 007f a039 0ada b8bc
00000330: 08dc 493b 256c b43c abf6 07bd 34a7 04bd
00000340: b879 77bc 49dd 55bc 39f6 813c 2b1e adba
00000350: 33f4 353c 8602 28bc 9a42 db3c b1f6 813c
00000360: d1a6 493c 95d2 fcbc 7ce5 8c3a ebf7 05bd
00000370: e3d5 89bc 603c c33b 5a6d a9bc c0f2 4bbc
00000380: cec9 04bd 0586 043d aab5 4dbc 2503 8abc
00000390: 6476 793c 8377 643b f58b 98bc defa cd3c
000003a0: 6d57 9d3a 3432 01bd c923 d53b b7c3 db3b
000003b0: efa0 013d 0c63 003d 4564 b2bc 89f7 4e3b
000003c0: f408 073c 1590 57bc 829c 093d 7d72 8cbc
000003d0: c774 f6bc 6cb9 933c f27b 823c e907 19bc
000003e0: 9245 153b e419 0abc dcaf 38bc b816 603c
000003f0: ac34 b93c 15ed c2bc 0b97 04bd 46ce 03bd
0.023263454 -0.018348962 0.033455994 0.02638188 0.0248199 -0.032002144 0.03317326 -0.010757094
-0.0025328211 -0.025589228 -0.022832565 -0.009695953 -0.010554859 -0.017301185 0.018400662 0.02935842
0.033648934 0.01761143 -0.03503331 0.016253699 0.008251119 -0.008768452 -0.008797063 -0.03288474
-0.0020166002 -0.011845015 -0.0014796853 0.025301754 -0.019182138 -0.0058337376 0.010915764 -0.027112268
-0.0026215948 -0.0047808513 0.016629077 -0.022993263 0.018166836 0.030413654 0.025272693 0.006466925
-0.021134714 -0.02061757 0.0050373487 -0.031942032 0.029452879 0.0019671917 -0.009461379 -0.014766958
0.025822345 0.0067965277 0.012078691 -0.032210007 0.030203696 -0.008112559 0.034476127 0.0037523173
0.02865382 -0.019185394 -0.025612224 0.030595925 0.019838005 0.016153745 0.032020558 -0.010634325
0.0035717562 -0.025137255 0.021361824 0.02503644 -0.011817813 0.0289057 -0.007637821 0.017671712
0.029260647 -0.01520114 0.010858342 0.03216843 0.023491617 -0.0013233013 -0.007998373 -0.004975153
-0.016464183 -0.008876678 -0.0059610344 -0.018670231 0.023919921 0.001994729 -0.01884805 0.0041819178
0.004387457 0.0021516085 -0.011755781 -0.015499717 0.01784999 0.012253005 -0.029867455 -0.006229043
-0.00090854615 -0.01517709 -0.0085384175 -0.0033417996 0.030988723 -0.010904092 0.012417328 -0.023425456
0.02316045 0.025832977 0.016456828 -0.017391533 0.0017504729 -0.018948747 -0.015790144 -0.013959723
-0.014360752 0.020418163 -0.0031306706 0.0025123954 -0.02315563 -0.0040544868 -0.016963461 -0.024377987
0.03535385 -0.028751716 0.010504372 0.021296397 -0.032237165 -0.022379134 -0.01067904 -0.029855277
0.0063943393 -0.0011916754 0.032419607 0.025971772 -0.010780661 0.0005227634 -0.021999309 0.013945755
0.007369604 0.016607363 0.03388605 0.027633015 0.025380462 0.0030231886 -0.031355128 -0.021019652
0.032633815 -0.015987389 0.002594564 -0.020031117 -0.0058987597 -0.0155202085 0.0013473852 -0.028127076
-0.010216677 0.009147155 -0.034078036 0.017264908 -0.0029148052 0.023238467 -0.027810907 -0.012698313
-0.033799566 -0.03396836 -0.021782096 0.005283259 0.027102228 0.023481224 -0.006003622 0.014285311
-0.030730125 0.011413451 -0.010447299 0.021294173 -0.0032922588 0.021178886 4.0106475e-05 0.024674468
-0.033899125 0.028906792 0.0072282148 -0.009691666 0.0130353365 0.00046056937 -0.025522744 0.0054487907
-0.024136432 0.0048553497 -0.0266275 0.013057723 -0.0035971156 -0.02727755 -0.01648599 0.01488363
0.027954932 0.0013315864 0.03462709 -0.015307218 -0.008779436 -0.028425464 0.008590184 -0.0102669
0.024063867 -0.009733319 0.000306122 -0.022564907 0.0030801315 0.022024224 -0.033194225 -0.03238602
-0.015104704 -0.013053247 0.015864478 -0.0013207843 0.011105585 -0.010254508 0.026765157 0.015864702
0.012307839 -0.030862132 0.0010749544 -0.032707136 -0.016825622 0.005958125 -0.020682026 -0.012448013
-0.03241902 0.032354373 -0.012555519 -0.016847203 0.01522598 0.0034861274 -0.018621424 0.025144037
0.0012004204 -0.031542018 0.00650451 0.0067066806 0.03164762 0.03134446 -0.021776328 0.0031580648
0.008241881 -0.01315691 0.033596523 -0.017144436 -0.03008498 0.018032752 0.015928242 -0.009340265
0.0022777063 -0.008429024 -0.011272397 0.013677292 0.022608124 -0.02379469 -0.03237061 -0.03217914

m12.bias f4 [20]
00000000: 05c5 b43b 418f 5b3c 2b88 7e3c 58be 13bb
00000010: e0f6 a33a 5841 e83c aab1 9c3c e962 2e3c
00000020: bd53 013d 17fa eabb 0c2e 72bc aa51 083c
00000030: 9ec1 0abd 5254 a93b a58f fb3c eac8 daba
00000040: 3b32 abbc 91a3 a9bc ed7a 3bbc eac5 49bc
0.0055166506 0.013400854 0.015535395 -0.0022543874 0.0012509488 0.02835147 0.019127686 0.010643699
0.031574 -0.0071709263 -0.014781486 0.0083202515 -0.033876054 0.0051675225 0.030708143 -0.0016691957
-0.020897975 -0.020707877 -0.011442882 -0.012315253

m13.weight f4 [20, 784]
00000000: 409d 57bc 185a 223c 132c 013d a20e ca3c
00000010: 0a51 f8bc 70a7 a13b 78b8 fdbb e2fa 963c
00000020: 2002 a53c bf9f 07bd 0734 98bc e4ae a0bb
00000030: 702c 863c 6496 c5bb bc2a 113c 3cda 6abc
00000040: 40e9 35bc ad2f 10bd 804e edbb 3c55 e7bc
00000050: 5374 8bbc 88cd f4bb 33f2 d4bc 0066 98bb
00000060: 5658 f73c 5c78 8d3c c889 923b f8ec ca3c
00000070: 4017 fb3a 2eab 893c 1679 e93c d0f4 6c3c
00000080: d32c a3bc cc6f b23c 967d df3c ab51 083d
00000090: 80c7 c93b 2a4e 18bc 92be 44bc 00c4 133b
000000a0: c0fa b5ba 40d6 2dba 2a83 cdbc 121d 47bc
000000b0: d0e6 bf3c 5825 933c 5d19 0f3d c359 8dbc
000000c0: 1cbf eebc ed71 0c3d 7c1c 22bc 4a60 13bc
000000d0: 3b75 0b3d c89e 903c 1c47 a3bc d787 003d
000000e0: 86c1 18bc 788e a0bb 304c 893b 6cbd bbbc
000000f0: f0e2 b73c 982b c33c 3896 5bbc 53ff 0e3d
00000100: 1709 053d d074 45bb 8476 203c 3450 633c
00000110: 78c4 f2bb 2ce2 d0bc d024 1cbb 23df 87bc
00000120: 3430 033c 1e26 cfbc 300d 0cbd b016 eb3b
00000130: 54bf b4bb 5563 0a3d e6cb 2dbc 7ccc 7bbc
00000140: c0a4 bbbc 3e2c 99bc 6ad9 f83c 105b 1c3c
00000150: a5da f6bc b8ec ffbb 8032 123c 001d a039
00000160: 08e6 7d3c a467 683c fef1 d8bc 4bc9 073d
00000170: 749a 653c d037 5f3b 60af c4bc 400d 4cba
00000180: 10ec b73b e00b a7bc 1a99 e8bc e046 daba
00000190: 8a6b fcbc 146a 253c 9c6d 26bc 401e f63a
000001a0: 6ea8 72bc 2695 43bc 2878 ad3c 4587 82bc
000001b0: c088 7e3a a89d 8e3c 455e 10bd 3828 973b
000001c0: 2091 d0bc 90d3 2f3b 7c9c 5e3c 1872 a63c
000001d0: 7ef7 93bc dc88 8e3c 4c8a 99bc fc7a a13c
000001e0: a1e6 a4bd c8c5 8cbd 0d0f 25bd d3de a1bc
000001f0: 28b9 c93c 6e76 84bc 879f 073d 6abb 46bc
00000200: 56da 05bd 7efd cfbc d63f e93c 17e7 96bc
00000210: 80f5 e2b9 2a00 5dbc 6310 e7bc 3235 de3c
00000220: 0e2a ccbc be2a f13c 7c71 d0bc 4e1a 70bc
00000230: ae0b bcbc ca8a 98bc c82e 8c3c e0a7 b7bc
00000240: 76b6 b93c 306f 2b3c 6410 9abb e34e afbd
00000250: c48e 48bd f2e4 a8bd a82b 80bd c57b c1bc
00000260: 9d1b 11bd 20a7 523b 72da 0cbc 67b1 0f3d
00000270: a0c0 ff3a ace9 dabc 34be 1e3c 5c77 b3bb
00000280: 009f 40b9 f5d0 f0bc 527d ee3c b872 b4bc
00000290: 002c 64b8 58a0 41bc 1c82 343c ec02 a63c
000002a0: 830f 113d 06cf d63c a08a 0ebb babb c0bc
000002b0: d42b 663c 5093 96bc 637c d2bc 32db 07bd
000002c0: 327b fcbc b4e2 babd 5a0c 97bd 05fe 5bbd
000002d0: 1b32 b7bd e023 dcbc 1d6b 28bd 159b 53bd
000002e0: 99e6 9ebd d08e 12bb 7804 60bc e817 8c3c
000002f0: 6011 4cbc e43a 193c 584c 03bd f565 f9bc
00000300: 5368 aebc 20dc 303c 5a02 c6bc d55a d2bc
00000310: 743d 123c 46b7 9e3c 8e79 0fbc 5c75 e8bb
00000320: 93f7 f1bc ca89 babc 6bba bcbd 9aa9 a1bd
00000330: 5545 0ebd 510a 2dbd fc7c 2dbd 7365 53bd
00000340: 512a bdbd e9ff 9abd d8eb 9dbd 710e 48bd
00000350: c6ba 8bbd 5751 03bd fdba 7fbd 9cd5 7d3c
00000360: 569b eb3c 5877 21bc 54a2 d2bb 300a 70bb
00000370: f833 0cbc 0a57 3bbc 8853 7a3c 4e6c 34bc
00000380: 0a04 0ebc 300c e13b 004c 64bc 43ea a0bc
00000390: b3a1 f5bc be5d f13c c24c 88bd 3b1a f9bc
000003a0: 62e8 ccbc b2e3 92bd 5829 c2bd 01b9 a8bd
000003b0: 2e46 fcbc d8a7 92bd 2be7 01bd 03a3 6dbd
000003c0: 114b afbd d281 8ebd 5a2e 93bd 68ae 35bd
000003d0: efbd 083d ca1b 1ebc e85f ccbc ccdb a93c
000003e0: 92bc 25bc e0a2 1fbb 60c5 61bc d0f1 c23c
000003f0: a210 993c 2342 053d c8b2 8a3b bc1f a2bc
-0.01316005 0.009909175 0.031536173 0.02466518 -0.03031208 0.00493329 -0.0077429377 0.018430177
0.020142615 -0.03311133 -0.018579496 -0.004903661 0.016378611 -0.006029891 0.008860286 -0.014334258
-0.011102974 -0.035201717 -0.007242024 -0.028238885 -0.017023241 -0.0074707903 -0.025994396 -0.004650831
0.030193489 0.017269306 0.004471991 0.024771199 0.0019156709 0.016805258 0.028500121 0.014462665
-0.019918835 0.021781825 0.027281564 0.03328101 0.0061578155 -0.0092959795 -0.012008326 0.0022547245
-0.0013883933 -0.0006631352 -0.025086958 -0.012152927 0.02342549 0.017962143 0.034936298 -0.017254716
-0.029143862 0.034288336 -0.0098944865 -0.008995125 0.034047347 0.017653838 -0.019931369 0.031379547
-0.009323483 -0.004899796 0.0041899905 -0.022917472 0.02244708 0.023824498 -0.013402514 0.034911465
0.032479372 -0.003012944 0.009793881 0.013874102 -0.007408675 -0.025498472 -0.0023825653 -0.016585892
0.008007098 -0.02528673 -0.034192264 0.0071743354 -0.005515972 0.033786137 -0.010607695 -0.015368577
-0.022905707 -0.018697854 0.030377109 0.009543195 -0.030133555 -0.0078102015 0.008923173 0.00030539185
0.015496738 0.014184866 -0.026482578 0.033150952 0.014013875 0.0034060366 -0.024009407 -0.0007783957
0.0056128576 -0.020391405 -0.028393317 -0.0016653202 -0.030812997 0.010096092 -0.010157969 0.0018777326
-0.014810665 -0.011937415 0.021175459 -0.015933642 0.00097097084 0.01740916 -0.035246152 0.0046129487
-0.025459826 0.0026828982 0.0135871135 0.020318076 -0.01806235 0.017399244 -0.018742703 0.019711964
-0.080518015 -0.06873661 -0.040297557 -0.019759571 0.024624422 -0.016169753 0.03311112 -0.012129644
-0.032678925 -0.02538943 0.028472822 -0.01842074 -0.0004328899 -0.013488809 -0.028206056 0.027124975
-0.024922397 0.029439326 -0.025444739 -0.014654709 -0.022954788 -0.018620867 0.01711215 -0.022418916
0.022670012 0.010463521 -0.004701661 -0.08559968 -0.048964277 -0.08246793 -0.06258327 -0.023618588
-0.035426725 0.0032143071 -0.008597003 0.035081293 0.0019512363 -0.026722752 0.009688903 -0.005476875
-0.00018369779 -0.029396513 0.029112492 -0.022027358 -5.4400414e-05 -0.011818014 0.011017349 0.020265065
0.035415184 0.026221763 -0.0021750107 -0.023527015 0.014048535 -0.018380791 -0.025694078 -0.033168025
-0.030820463 -0.091252714 -0.07375403 -0.05370905 -0.08945104 -0.026872575 -0.041117776 -0.05166157
-0.07758827 -0.0022362955 -0.01367294 0.017101243 -0.012455314 0.0093524195 -0.03205523 -0.030444125
-0.02128998 0.010794669 -0.024171043 -0.025678078 0.008925784 0.019374501 -0.008757008 -0.0070940685
-0.029536998 -0.022770781 -0.09215244 -0.07893677 -0.03473409 -0.042246167 -0.042355523 -0.05161042
-0.09236587 -0.07568342 -0.07710999 -0.048841897 -0.068227336 -0.032059994 -0.062434185 0.015492823
0.028760593 -0.009855114 -0.0064280424 -0.0036627166 -0.008557312 -0.011434326 0.015278704 -0.01101215
-0.008667955 0.006867908 -0.013934135 -0.019642955 -0.02998433 0.029463645 -0.066552654 -0.030408015
-0.025013153 -0.07172336 -0.09480542 -0.08238412 -0.030795183 -0.0716092 -0.0317146 -0.05801679
-0.0855924 -0.06958355 -0.07186575 -0.04435578 0.03338426 -0.00965018 -0.024948075 0.02073469
-0.010115759 -0.0024358556 -0.013779968 0.023796946 0.018684689 0.032533776 0.004232738 -0.019790523

m13.bias f4 [20]
00000000: 6576 b6bd d90a f83c 9ac9 cb3d 25e1 3fbd
00000010: e5fd 30bd aa77 dbbb b730 8c3d fccd 1c3c
00000020: e669 363d 5ad6 5c3d e556 943d fd44 563d
00000030: 1d95 5abd 21f7 3d3d 5f54 eabc 7fce 00bd
00000040: 60cd 2ebd c61b 82bd a0c3 7c3d 97b6 f4bc
-0.08909301 0.03027861 0.09950562 -0.046845574 -0.043210883 -0.0066976147 0.06845229 0.009570595
0.044534586 0.05391536 0.07243136 0.052311886 -0.05336486 0.04637826 -0.028604684 -0.03144693
-0.04267633 -0.063529536 0.06171 -0.029872222

m14.weight f4 [20, 784]
00000000: 42ed 8d3c 8fa8 0a3d e613 ed3c a6ed 50bc
00000010: 52bc 843c 7046 333c ce57 20bc 1b1c 0c3d
00000020: 1076 ac3c 603a 72bb 5cb2 f6bb fc3e b33c
00000030: 0cea c9bc e889 adbc 4072 cd3c e02f df3b
00000040: 6657 fc3c 5f17 003d 9abf e43c 007e 2cba
00000050: ca65 d6bc 9a21 99bc 70f9 c0bb 60b1 fb3a
00000060: 0048 4e38 0caa c4bc 3145 013d 4680 5ebc
00000070: 0062 a83c 3129 f3bc 9c71 1b3c 805b 023a
00000080: 7238 09bd f249 45bc 0862 92bb e817 bd3b
00000090: a090 d13c c876 dabb eef4 a93c 00e2 623b
000000a0: e0ca ebba e0b7 203c a8d4 443c ce9d c83c
000000b0: d876 3fbc e876 8c3c 08a9 b1bb 6610 ef3c
000000c0: 0a45 11bd d07d 67bb 48f4 a03b a627 59bc
000000d0: 80f8 3bbc f5ae f0bc e5fb fdbc d030 6b3b
000000e0: 701a 5b3b 54b1 443c 38b6 84bb 60fd 7dbb
000000f0: 60b6 7fbc 784e 5d3c 5614 02bd e69d 933c
00000100: c05b 08ba 845e 513c 801b f839 c7e2 07bd
00000110: a023 523c e0f5 0ebc 0ae3 803c 3efc 89bc
00000120: 8841 013c e633 5abc 7e89 9d3c 0ca2 923c
00000130: 793f 123d a409 d7bb 0ae1 55bc c8c8 84bb
00000140: 4862 84bb 9758 0cbd 807b 653c a899 0ebd
00000150: a46f 0bbd 1a67 ed3c 80d9 05bb de71 88bc
00000160: 5c56 6cbc 3ab5 bb3c 23e3 cbbc d802 463c
00000170: 367e 933c 22b6 bf3c 10e6 8cbc 3c97 363c
00000180: 5435 3b3c e0c3 f8ba 25ab 053d b8c9 c33b
00000190: c730 6f3d 6fcd 0bbd 5043 703c 8509 85bc
000001a0: 7297 ee3c 40f8 393c 7eec e53c 58a2 553c
000001b0: 2a76 fb3c bcaa 363c b06e 9cbb b079 433c
000001c0: 302a 383b e3ef abbc 8537 e8bc a117 ffbc
000001d0: c682 be3c de76 f9bc 0cd5 dabc 9cae ffbb
000001e0: 22be d73c 724d e93c 7026 133c e045 533c
000001f0: 0e47 e1bc a527 04bd 586f 11bd 2765 89bc
00000200: a8ae 333d 2dd3 c03d dc9c ae3c d0fe 623b
00000210: 36ee dd3c ffd0 723d c2f3 a13d 04f6 fa3c
00000220: 7e52 8d3d 035a f0bc e4e5 c3bb 1e64 eebc
00000230: f80a 9fbb 6068 c33b 4027 8a3b e86b be3c
00000240: 38ca b6bb 6a35 57bc 688b 9e3c f880 ae3b
00000250: 3727 193d ec5e 993d 14d6 9d3d 17e9 203d
00000260: e995 663d 55a8 6a3d b538 513d aa5b 403d
00000270: b40a 0c3d 4456 c93c 07e6 ac3d ccdd 293d
00000280: 8020 c3bc 419d ec3c b6b3 1c3d 60db bb3d
00000290: d5af 973d 2262 c03c e4e8 e0bb 0e44 cabc
000002a0: 66db ce3c f82e 62bc 5e3e 9a3c c7d8 0e3d
000002b0: 88c6 b3bb 4b06 0d3d d00f 7a3c 84ea 8e3d
000002c0: eff9 143d 3dc9 293d 921c c13d fb62 9c3d
000002d0: 2693 893d 975b 683d f6f0 8c3d 5f60 da3c
000002e0: 91f7 583d a0c3 2c3d fd8c 873d c95e ab3d
000002f0: 3023 5c3d 326d 923d fdde 5c3d 919d 973d
00000300: 562f 863d 10f2 cbbc e0af 7abc 6efc ed3c
00000310: b4cb 7d3c b867 f8bb 7662 fb3c b3b6 0c3d
00000320: 4fd4 063d d67b 0dbd e427 e7bb bc59 643d
00000330: 12aa ba3d d15f 9c3d 6be4 163d ba5e 8b3d
00000340: 7092 593d b5e4 a33d f697 5c3d 726c 713d
00000350: fbde 6d3d 9d51 533d d274 be3d c4c8 eb3c
00000360: ee1e 8c3d 5dbc b33d 92cd 053d 9d19 6d3d
00000370: d1d1 143d 1bb2 00bd 5a9c e03c e8f9 c63c
00000380: 28c5 82bb 7877 0bbc 206b adbc 50f1 c43c
00000390: d398 e8bc aa2d c33c d114 143d 579a 993d
000003a0: e615 133d f8b1 2d3d 585e 723d ea13 be3d
000003b0: e4b4 6e3d 49f5 933d a1d3 b63d 81c4 943d
000003c0: 7adc 473d 694e bd3d 9d30 013d 970e b03d
000003d0: bbfc 943d 10fe 853d 30ed b83d 7d4a 5a3d
000003e0: 242a f8bb fc17 a1bc faba febc a6f9 963c
000003f0: c509 d5bc f09a aebc fafe cfbc c88b a8bb
0.017325047 0.033852156 0.028940152 -0.012751972 0.01620308 0.010942087 -0.009786559 0.03420649
0.02105239 -0.0036961064 -0.0075285863 0.02188062 -0.024647735 -0.021183923 0.025078893 0.006811127
0.030803394 0.03127229 0.027923394 -0.0006580055 -0.026171584 -0.01869278 -0.0058891103 0.0019202642
4.9181283e-05 -0.024006866 0.031560127 -0.013580387 0.020554543 -0.029682728 0.009487536 0.0004972741
-0.033501096 -0.012041556 -0.0044672526 0.005770672 0.025581658 -0.006666992 0.020746674 0.003461957
-0.0017989539 0.009809464 0.012013592 0.02448931 -0.011686049 0.017146543 -0.0054217614 0.029182624
-0.03546623 -0.0035322793 0.004911933 -0.013254082 -0.011472821 -0.029380301 -0.031003902 0.0035887249
0.0033432506 0.012005169 -0.0040500425 -0.003875576 -0.015607446 0.013507478 -0.031757675 0.018019628
-0.000520166 0.012778882 0.00047322735 -0.033175256 0.0128258765 -0.008725613 0.01573326 -0.016843911
0.007889159 -0.013318038 0.0192306 0.017899536 0.035705063 -0.0065624285 -0.013054142 -0.0040522553
-0.0040400364 -0.034264173 0.0140064955 -0.034814507 -0.034042016 0.028979827 -0.002042383 -0.016655859
-0.014424887 0.022913564 -0.02488858 0.012085639 0.018004518 0.023402277 -0.017199546 0.0111444555
0.011426289 -0.0018979274 0.03263392 0.0059749745 0.058396127 -0.034131464 0.014664486 -0.01623989
0.02912495 0.011350691 0.02806687 0.013039194 0.030695993 0.011149105 -0.004773937 0.011930868
0.0028101318 -0.02098841 -0.028346786 -0.031139197 0.023255717 -0.030452188 -0.026712917 -0.0078027975
0.02633578 0.028479312 0.008981332 0.0128950775 -0.027499702 -0.03226437 -0.035506576 -0.016771866
0.043867737 0.094152786 0.02131503 0.0034636743 0.027091127 0.059281345 0.07907821 0.030634888
0.069005 -0.029339796 -0.005978333 -0.029100474 -0.0048536025 0.00596337 0.0042161047 0.023244813
-0.0055783056 -0.0131352935 0.019353583 0.005325433 0.037390914 0.07488808 0.07706848 0.03928479
0.05629531 0.05728944 0.05107947 0.046962418 0.034189895 0.024577267 0.08442312 0.041471288
-0.023819208 0.028883578 0.038257323 0.09172702 0.07406584 0.023484293 -0.0068637 -0.024690654
0.025251102 -0.013805144 0.018828567 0.034874704 -0.0054863133 0.03442983 0.015262559 0.06978324
0.036371168 0.04145168 0.094292775 0.076360665 0.067175195 0.056727972 0.06881897 0.026657281
0.052970473 0.04217875 0.06618688 0.08367688 0.053744495 0.071497336 0.053923596 0.074031
0.06551997 -0.024895698 -0.015300721 0.029051032 0.015490461 -0.0075807236 0.030686598 0.034353923
0.032917317 -0.034541927 -0.007054316 0.05574964 0.091144696 0.07635463 0.03683893 0.06805177
0.05311817 0.08002607 0.05385586 0.058941312 0.05807398 0.051591504 0.092996255 0.028782256
0.06841837 0.08776162 0.03266675 0.057885755 0.03633291 -0.031419855 0.027418304 0.024289086
-0.003990788 -0.00851237 -0.021169245 0.024040848 -0.028393185 0.023825485 0.036152665 0.07500141
0.035909556 0.042406052 0.059172004 0.09281142 0.05827798 0.07224519 0.08927084 0.07264043
0.048794247 0.09243471 0.031540502 0.08596533 0.07274767 0.06542599 0.09029615 0.053293694
-0.007573383 -0.019664757 -0.031095017 0.018429589 -0.026005635 -0.021314114 -0.025390137 -0.0051436163

m14.bias f4 [20]
00000000: 3faa 483d 4ee1 023d 3253 9a3d 52ff b03d
00000010: 5dad e33c 037d 283d d020 823d 176a bb3d
00000020: 557a 283d ccc0 613d 0653 403d 5df1 583d
00000030: e8d0 ee3c be8b bb3d cf5a bb3d c6be 12bd
00000040: 5082 2d3d 4d5b 193d 4fad 9f3d 4019 6d3d
0.048990484 0.03195315 0.075353995 0.086424485 0.027792627 0.041134845 0.06353915 0.091510944
0.04113229 0.055115506 0.046954177 0.052964557 0.029152349 0.09157513 0.0914818 -0.035826467
0.042360604 0.037440587 0.07796728 0.05788541

m15.weight f4 [20, 784]
00000000: 8484 243c 7c94 91bc dc67 88bc aef2 c5bc
00000010: 3c80 393c 2a2d 09bc 3888 b33c 98b5 83bb
00000020: a89e b63c 33a5 9abc 40f7 afbc 4e95 9ebc
00000030: e6cb 1ebc 5cc9 45bc 346d 023c 3d0a 0e3d
00000040: feb5 ed3c 8058 d3bb 94dd dcbb 1ad1 dbbc
00000050: 542d 713c 3056 7a3b a6f9 f03c 1552 b5bc
00000060: 2e58 aebc 58f3 0bbd 8810 8d3c 72fa 6abc
00000070: 3a36 dd3c 4395 91bc e046 0bbd c010 bcbc
00000080: b891 acbc 801b 58bc 38c3 e9bb 735d 0b3d
00000090: e278 b23c ea41 9fbc 3660 b23c 0552 bcbc
000000a0: 8649 6fbc 2aa0 8f3c d227 e23c 184e 8b3b
000000b0: a1b1 043d 3131 0c3d fe66 913c 4086 a73b
000000c0: 2378 e2bc 8ea6 17bc 4336 92bc cc45 953c
000000d0: a4c0 0abc b136 ecbc ce1c dbbc 60b0 fd3a
000000e0: 20d4 f4ba 202f 1d3c c685 67bc 63f3 dcbc
000000f0: f0cb 8d3c 55bc ccbc 9ea0 f63c acd5 883c
00000100: e41b 443c 2afb 6dbc c03a 863c 6693 01bd
00000110: 6571 c6bc 8645 21bc 456e dabc 20fd 2e3b
00000120: 509d 2cbb f0a9 3bbb c013 853c 50b9 ae3b
00000130: a272 ee3c 1f0c 103d a5c3 98bc 1c49 7cbc
00000140: 6078 0abc 8895 aabc 260e 0ebd 804f e4b9
00000150: 0087 d6ba aabe fb3c 58be 233c 8f82 073d
00000160: 32c6 06bc 8ac3 9cbc beb5 eabc 9386 95bc
00000170: 4c62 cebc 1f41 08bd 8891 83bb a045 24bb
00000180: 30c2 ffbb 5af1 89bc 6836 9a3b 795c 033d
00000190: b0ea dc3b b4c7 7ebc dc3c 6c3c 0630 983c
000001a0: 3cdd 1dbc a003 e13b 5233 4dbc c817 7f3c
000001b0: 6ab7 88bc 9076 50bb a621 d83c 945a 263c
000001c0: c810 08bd 08c3 febb 7808 dfbb 5e83 0fbd
000001d0: 68a1 de3b b0bb d13b ea1c 81bc c156 093d
000001e0: ec39 8c3c 805f 8fb9 5c00 643c fe86 c83c
000001f0: 9059 283d 3031 8e3d 96ad a33d 5e9e 4a3d
00000200: 6cb8 c03d 8ca6 e83c 8954 6f3d e2f4 ac3d
00000210: 8435 243c 409c 64ba 13e0 ecbc ae7e 34bc
00000220: 3810 3a3c 6e9e d53c f63b e53c 7ff4 0e3d
00000230: 684a a7bc db63 11bd 9076 81bb 6c0b 03bd
00000240: dcb3 d33c 2e83 43bc 7020 5b3b 886c 3b3c
00000250: 4b40 1a3d df78 ba3d 01e2 103d 1a5d c13d
00000260: d382 433d 9e12 2b3d e9e3 fb3c 792f 113d
00000270: fb57 2e3d 8099 433d a9ff 273d ac3a 943d
00000280: 06cc 1a3d 1a2c bdbc 786a 0bbd 8810 a33b
00000290: c032 86bb d637 e73c aa6f 0bbd 080b b43b
000002a0: 59b9 0d3d 7698 9c3c 058c e4bc 96fb f83c
000002b0: 2ed3 15bc 556b c5bc c075 92bb d420 3e3c
000002c0: 8bde 973d ec05 513d 0d73 283d 7a83 2d3d
000002d0: 864e 613d 0da0 8c3d ce50 a93d f864 153d
000002e0: 32d9 133d bf08 9f3d ec33 853d c6b2 983d
000002f0: 3895 593d 1044 86bb ca69 b7bc de26 e53c
00000300: 4ca5 d7bc 46fd 993c c011 543c 9295 d23c
00000310: 00b0 c1b8 8c91 afbc 4a4b ebbc 7f76 0d3d
00000320: 0036 b93c 080c 1f3c 7620 a83c 6e5c 943c
00000330: 80bb 973d 7bba b53d 88d5 ba3d bdf2 ef3c
00000340: 6970 833d b382 0b3d 0e13 f63c 6df9 623d
00000350: 9a35 803d 9240 b33d d791 ad3d 156a d63c
00000360: 0e42 a63d 6f45 ac3d 026c 813c 018f e7bc
00000370: 72d4 10bc 5cfb 02bd 941b e3bb 780f fabc
00000380: 0098 f3bb c504 0e3d 40bc aebc aee0 40bc
00000390: 843a 1c3c 0070 19bc 0375 85bc 6c8d 953c
000003a0: 4475 d43c dd9f 673d 5620 0a3d 073c 8c3d
000003b0: e3cd 833d 1541 5a3d 40a5 243d 5006 863d
000003c0: d127 b53d aede af3d d0fb aa3d 7f8d e23c
000003d0: 9932 293d 2b89 bf3d 4318 c23d 0ef4 1e3d
000003e0: e65e 66bc 7c7b 183c 3040 793c e415 02bc
000003f0: 40f2 41bc 905a 853c f1ec 0c3d 7a3f fb3c
0.01004136 -0.017770998 -0.016651087 -0.02416357 0.011322077 -0.008372584 0.02191554 -0.0040194504
0.02229245 -0.018877601 -0.021480203 -0.019358303 -0.009692168 -0.012071934 0.007960606 0.034677733
0.029017445 -0.006449759 -0.0067402814 -0.026833106 0.01472028 0.0038198344 0.029415917 -0.022133866
-0.021282282 -0.034167618 0.017219797 -0.014341937 0.027003396 -0.017771369 -0.03400314 -0.022957206
-0.021065578 -0.01319015 -0.0071338676 0.034024667 0.021786157 -0.01944061 0.021774393 -0.022988329
-0.014604932 0.017532427 0.027606878 0.004251253 0.032395963 0.0342266 0.017749306 0.0051124394
-0.027645176 -0.009256018 -0.01784814 0.018221758 -0.008468781 -0.028834673 -0.026747134 0.0019354932
-0.0018678941 0.009593755 -0.014131015 -0.026971525 0.017309159 -0.024992147 0.030105885 0.01670345
0.01196954 -0.014525214 0.016385436 -0.03163471 -0.024223993 -0.009843236 -0.026663909 0.0026701167
-0.0026338883 -0.0028635226 0.01624477 0.0053321496 0.029107396 0.03516781 -0.018647978 -0.01539829
-0.008451551 -0.020823255 -0.03468146 -0.0004354678 -0.0016367137 0.030730564 0.009994112 0.033083495
-0.008225964 -0.019136209 -0.028651115 -0.018252647 -0.025193356 -0.03326523 -0.0040151514 -0.0025065914
-0.0078051314 -0.016838718 0.0047061928 0.03207061 0.006741844 -0.015550543 0.014418807 0.018577587
-0.009635266 0.006866887 -0.012524443 0.015569635 -0.016689021 -0.003180895 0.026383232 0.010153431
-0.03321913 -0.0077747144 -0.0068064295 -0.03503739 0.0067941435 0.006400548 -0.015760858 0.03353
0.017117463 -0.00027346238 0.013916101 0.024478432 0.04110104 0.069429755 0.07992093 0.049467437
0.09410176 0.028399728 0.05843023 0.08445145 0.010022525 -0.0008720793 -0.02891544 -0.011016531
0.011356406 0.026076522 0.027982693 0.03490114 -0.020421222 -0.03549562 -0.0039509013 -0.031993315
0.0258426 -0.011933131 0.0033436082 0.01143945 0.03765897 0.091050856 0.035371784 0.09441586
0.047732186 0.0417658 0.030748324 0.035445664 0.042564373 0.04775381 0.0410153 0.07237753
0.03779223 -0.023092318 -0.034037083 0.004976336 -0.0040954053 0.028224867 -0.034042038 0.005494479
0.03460059 0.019115668 -0.027898798 0.030393403 -0.009144587 -0.024099031 -0.0044696033 0.0116045065
0.074154936 0.05103104 0.041125346 0.042361714 0.055006526 0.06866465 0.082673654 0.036473244
0.036095805 0.0776534 0.06504044 0.07455973 0.05312082 -0.004097469 -0.022389311 0.027972635
-0.026323937 0.018797528 0.012943685 0.025706086 -9.23574e-05 -0.021431707 -0.028722424 0.034536835
0.022608757 0.009707458 0.020523291 0.01811048 0.0740881 0.08873459 0.09122759 0.029290551
0.06417925 0.03406019 0.030038383 0.055413652 0.06260224 0.0875255 0.08475082 0.02617363
0.08118068 0.08411681 0.015798572 -0.028266432 -0.008839713 -0.031977996 -0.006930778 -0.030524954
-0.0074338913 0.034672517 -0.021329999 -0.011772318 0.009535436 -0.009365082 -0.016291147 0.018255912
0.025934823 0.056548942 0.033722244 0.06847387 0.06435754 0.053284723 0.040196657 0.06544173
0.08845485 0.08587395 0.08348811 0.027655361 0.04130802 0.093523346 0.09477284 0.038806967
-0.0140607115 0.009306785 0.015213057 -0.007939789 -0.011837542 0.016278535 0.034405652 0.030669916

m15.bias f4 [20]
00000000: 3e23 a73d 11a7 e33c 45b5 8abc ed62 b13d
00000010: d4b5 403d d2b5 5a3d 9b2a 7a3d e937 443d
00000020: 42da 1e3d 08fb b73d 5dd6 a93d 092b 863d
00000030: ccd0 6d3d f872 f1bc 730b 253d 98df 883d
00000040: a57d ad3d 6e01 0d3d 2626 4cbc 6775 6e3d
0.08161019 0.027789624 -0.01693214 0.08661447 0.047048405 0.053396054 0.061075788 0.047904883
0.038782366 0.08983427 0.0829284 0.06551177 0.058060452 -0.029473767 0.040294122 0.06683272
0.084712304 0.03442519 -0.012460267 0.058217432

m16.weight f4 [20, 784]
00000000: d09c 583b bc09 3a3c 5e12 dfbc d0ba dabc
00000010: 6811 eabc 0a26 48bc f026 873c 046b 493c
00000020: 10f9 35bb 73f6 f7bc 9e8f e83c 5282 4cbc
00000030: 50a2 333c 7548 aabc aac1 d6bc fe9e bb3c
00000040: ac3a a73c aa5b 9c3c 50d8 99bc 30e0 7fbb
00000050: b870 45bc 08c5 b9bb 2054 be3a c871 abbc
00000060: f039 77bb 20ff c33c d5fd a6bc 003a a138
00000070: 33f4 eebc e5fc 043d 23b5 a7bc 1c67 d6bc
00000080: 2401 fbbb 081d f3bc 408f 9ebb 6c91 d03c
00000090: c0a9 0cbd 5cdf 823c 508f 363b 1069 f93b
000000a0: b04c 1ebb 7662 e33c 68c0 9d3b ecb1 883c
000000b0: 844f 103c c8ce 2f3c fcdc 6abc 002c 333c
000000c0: 60b0 0f3c 4ecf ef3c fc39 11bd 6e8d df3c
000000d0: ee3a dd3c 10f9 123c c91d 003d fe6a ccbc
000000e0: b000 d83c fc28 253c 2001 dabc 573b 05bd
000000f0: f0d8 783c 8e67 d3bc f857 cd3c 60c8 31bc
00000100: 4b1f 04bd 00b8 28ba 72b3 3dbc e205 b03c
00000110: 3051 d23b 9e57 9dbc b8d0 eb3b 008d 6bbb
00000120: b5e4 bbbc 78ee 4bbc 5c36 79bc a012 2c3b
00000130: 9626 af3c 505f a83b 0ac9 803c 0a10 46bc
00000140: 80c2 693a 11cc 113d cc13 9abc cadd edbc
00000150: 4ee3 5dbc 5e9f fd3c ea28 43bc 4377 d8bc
00000160: 7ca2 72bc ceb4 f7bc c25b be3c 0024 dab9
00000170: 04bd 433c 10c9 11bb 5138 d43c 3418 813c
00000180: 1109 9fbc ce67 f0bc b92d 6b3c a127 40bc
00000190: 8661 7fbc 81cd 22bc d9b0 d43c c76b 8cbc
000001a0: 89c5 29ba b0a2 adbc 787e 17bc b62d 08bd
000001b0: 20fd 58bc 3873 ccbb f061 88bc 8023 183a
000001c0: f4d2 1c3c 128c 963c eb6c 06bd 48b7 e8bc
000001d0: ca94 ab3c 721a ff3c fcff f43b 8ff4 b3bc
000001e0: a932 6f3c 4f1c f43c 33c7 f13c 0131 e5bc
000001f0: 3b8f f53c 9fcf 9a3c 692d 053c cf61 d5bc
00000200: 1a71 bb3c 5aec 64bc 3232 b73c dc9a d3bc
00000210: 90ea 08bd db56 2c3c 385d d63c 7801 33bb
00000220: 2d25 27bb 00f2 613c b897 b2bc 97b3 0a3d
00000230: 1440 8f3c fbac 0e3d a4ea 5a3c 8351 07bd
00000240: 0cd4 b7bc 8099 4f3c 2a4b 07bc f9a9 cf3c
00000250: 3b1d 95ba 26a4 e03c 8a9f fb3c 7c76 af3c
00000260: f0d8 853c 46e8 a23c 8149 d8bb 4c78 b13c
00000270: 7367 123d d5c9 7ebb 3682 993b 11d7 05bd
00000280: 8358 e73c 0861 19bc 2ec6 9f3c a472 06bd
00000290: f7dd c1bc 90d1 0bbd 73e5 d2bc 983a 3e3c
000002a0: ca0b f6bc 1cce ebbb ee8e cc3c a470 0a3c
000002b0: 0075 a53c 5055 3abb 7446 a63c b962 e2bc
000002c0: 2b4a dc3a 1520 023d a9e0 6d3c 608d 2d3a
000002d0: 5927 56ba b5bd 673c 91be 253c 9ecf 273c
000002e0: bcab 043d d596 2ebc 5205 fd3c 4101 0dbd
000002f0: 2493 27bb ed1e d23c eb6f b0ba b9a3 bebc
00000300: 42bf 21bc 40c9 acbc 20fc 6ebc c516 c9bc
00000310: 407d 9eba b500 f2bc 7750 0a3d c0ff b0bb
00000320: 00b8 da39 908f cfbc 3743 14bc 5510 473c
00000330: 94df 95bc 31a9 08bd 0a23 8fbc 5048 973b
00000340: faab 843c 24e2 07bd 25d8 98bb a0ed 123c
00000350: e113 a73c 4ba4 0cbb 1366 1fbc 11f2 01bd
00000360: 3864 8c3c 2420 a2bc 6de0 edbc a2d6 90bc
00000370: d56e 433c 280a d2bc 68a7 06bd d06c bf3c
00000380: bdbf 013d ca7b cb3c 5665 b63c c00f 01bc
00000390: 0a71 8dbc 8721 9dbc 805c 573c 7613 f4bc
000003a0: 7965 903b 3616 073d 74d4 f03c 601d 0d3d
000003b0: 3b28 ecbc d3d1 05bd 8959 64bc 7628 663c
000003c0: 4ac6 f7bc 9713 f03b 46bc 8c3b 8b51 a23c
000003d0: 4863 4abc 538a 183b a5ef c4bb 7582 6bbc
000003e0: 26b8 c5ba e785 58bb d4d0 863c 1a1e b33c
000003f0: 887b c03b be61 b93c 002e 2e3c 7f33 123d
0.0033052452 0.01135486 -0.027230438 -0.026700407 -0.028572753 -0.0122161005 0.016498059 0.012293581
-0.002776686 -0.030268883 0.028388795 -0.012482243 0.010963991 -0.020786503 -0.026215393 0.022902962
0.02041372 0.019086678 -0.018779904 -0.0039043538 -0.0120508 -0.00566924 0.0014520921 -0.020928279
-0.0037723742 0.023925364 -0.020384708 7.6878816e-05 -0.029169178 0.03246774 -0.020472115 -0.026172213
-0.007660048 -0.02967693 -0.004838854 0.025459968 -0.034341574 0.015975647 0.0027856417 0.0076114014
-0.0024154596 0.02775691 0.0048141964 0.016686402 0.0088080205 0.010730453 -0.014334913 0.010935783
0.008770078 0.029273655 -0.03545569 0.027289119 0.027005639 0.008970514 0.031278405 -0.024953362
0.026367515 0.010080572 -0.026611865 -0.032527294 0.015188441 -0.025806215 0.02506636 -0.010850996
-0.032256406 -0.00064361095 -0.011578428 0.02148718 0.0064183697 -0.019206818 0.007196512 -0.0035942197
-0.022936204 -0.012446992 -0.015210714 0.0026256219 0.021380704 0.0051383153 0.015720863 -0.012088785
0.00089172274 0.035595004 -0.018808268 -0.029036421 -0.013542963 0.030959781 -0.01191161 -0.026424056
-0.014809247 -0.030237582 0.023237113 -0.00041607022 0.01194692 -0.0022245087 0.02590576 0.015758611
-0.019413503 -0.029346373 0.014354163 -0.011728198 -0.015587216 -0.009936691 0.025963234 -0.017141236
-0.00064762734 -0.02119574 -0.009246461 -0.03324672 -0.013243943 -0.006239321 -0.016648263 0.000580363
0.0095717795 0.018377338 -0.032818716 -0.028407708 0.020944972 0.03114054 0.007476805 -0.0219672
0.014599481 0.029798655 0.02951393 -0.027977468 0.029975524 0.01889783 0.008128502 -0.026047615
0.02288108 -0.013972366 0.022362802 -0.025830679 -0.03342682 0.010518755 0.026167497 -0.0027314108
-0.0025504336 0.013790607 -0.02180086 0.033862676 0.01748661 0.034832936 0.013361607 -0.03303672
-0.022439979 0.012670875 -0.008257667 0.025349604 -0.0011376509 0.027422022 0.030715723 0.021418802
0.016338795 0.019886147 -0.006600559 0.021663807 0.035743188 -0.0038877625 0.004684712 -0.032675806
0.028240448 -0.009361513 0.01950368 -0.032824174 -0.023665411 -0.0341354 -0.025744176 0.0116106495
-0.030034918 -0.007196201 0.024970498 0.008449707 0.020197392 -0.0028432198 0.020297267 -0.027634965
0.0016806772 0.031768877 0.014518895 0.0006620493 -0.00081693154 0.014144351 0.010116235 0.010242371
0.03239034 -0.010656078 0.030886326 -0.034425024 -0.002556988 0.025649512 -0.0013461089 -0.023271428
-0.00987226 -0.021092057 -0.0145864785 -0.02454699 -0.0012091771 -0.029541353 0.033768144 -0.0054015815
0.0004171729 -0.02533701 -0.009049228 0.01214989 -0.018295087 -0.03336448 -0.017472763 0.0046167746
0.016195286 -0.03317465 -0.0046644383 0.008967787 0.020395221 -0.002146023 -0.009728926 -0.031724993
0.017137632 -0.019790716 -0.029037679 -0.01768047 0.01192828 -0.025639609 -0.032874495 0.023367316
0.031676996 0.0248393 0.022265118 -0.00787729 -0.017265815 -0.019181026 0.013144612 -0.029794436
0.0044066277 0.032980166 0.02939818 0.034451842 -0.028827777 -0.032670807 -0.0139373625 0.014047733
-0.030245919 0.007326554 0.004294905 0.019814273 -0.012352772 0.0023275807 -0.006010013 -0.014374365
-0.0015084788 -0.0033038796 0.016456999 0.02186494 0.005874101 0.022629615 0.010631084 0.03569364

m16.bias f4 [20]
00000000: 60e8 d03d d8b3 92bd a2f2 7abc 1cf0 9d3d
00000010: 38f8 103e e848 1f3d bdf3 623b 173d 453d
00000020: 9836 643e 20d9 8cbd b7f9 83bb 0206 d3bb
00000030: 1056 a13c 2a10 f03d b816 60bc 1303 f03d
00000040: 8481 133e a5c1 7f3b 71ef b6bb a5fe 6f3e
0.10200572 -0.07163209 -0.015316637 0.07711813 0.14157188 0.03888789 0.0034630143 0.048153963
0.22286451 -0.06877351 -0.004027571 -0.006439925 0.019694358 0.11721833 -0.013677292 0.11719336
0.14404875 0.0039025333 -0.005582743 0.23436983
