autoencoder/saved_data/cnn_stacked_autoencoder.ckpt (torch_old, 44499 bytes, 25 tensors)

layer1.0.weight f4 [16, 1, 3, 3]
00000000: 41b9 dcbd 849e 083e c5fe bbbd fa93 293e
00000010: fad6 50be 3ae4 6fbd 47ed e4bd bde3 a3be
00000020: 68ff 983d 9bc0 533e 9dd3 cf3e 60ca 863e
00000030: 3c47 9d3e 7734 0e3d 30ce 333e 6a38 493d
00000040: b4d1 693c d784 b23b 3410 a93c a349 0ebe
00000050: 677c a0bb 44da d6bd 808d 3abe cde0 b33c
00000060: 2691 0e3d 9a28 9dbe b611 f93d 474a cc3d
00000070: 8d9e 1fbd 4c0e 85bd a163 8cbc 5643 0f3f
00000080: b2e2 1e3f 99ec 06bd 6fa9 cd3d 85fd 9fbd
00000090: 32c0 b1bd 2994 87be 370f 9fbe 14de d83c
000000a0: afde 3fbe a187 843c 6638 39bc e28e d53e
000000b0: 6b79 ba3e b291 04bc 0f4b c33d cf18 82bd
000000c0: f85d df3c 4fc6 8e3e 483c 73be 311c be3d
000000d0: b836 2abe 1669 e9be 83a5 4a3d 2e05 063f
000000e0: ac32 173e c4c8 5fbd 0ae8 0abf 7ee7 3fbe
000000f0: ea0f ef3c 5492 723a f8ca 523d 1b44 3c3d
00000100: 3500 90be 3057 1ebe 7c81 313e 2522 98bd
00000110: 0036 9bbe 0123 9ebe 8aa5 a1be 48ae 2bbd
00000120: 246d 80be a2da 153e 4c82 933d 880e bf3e
00000130: d35b 563f 1e74 65bd e14f ec3b a4a5 95bd
00000140: 4de2 003d e60d 4fbc 0aab 90be 964e 283d
00000150: 0599 bb3e cd58 8c3e d364 b73b b32a 9d3e
00000160: a3ef ec3e 8176 6e3d d7f5 233e cf41 583f
00000170: 3650 2d3d 4226 39be 4ab6 4b3e ade9 333b
00000180: b73b 3fbe 95ad d5bd 0f7e f93c d2ea 82be
00000190: e428 b4bd 831a 6ebd 8001 3bbe e0b5 cebd
000001a0: fbb9 42bd 19b4 abbd 794e 1dbe 8ff6 b1bb
000001b0: c87e 873e e692 bbbe e916 31be 6398 153e
000001c0: e34e 06bf 57eb 9bbe c02a 9e3d 4eb0 343e
000001d0: edf0 253e cf50 33bd 2c13 113f ea62 f3bd
000001e0: 3654 0abe 72ba d03e fad5 0a3d b0d1 363e
000001f0: 09ca 8a3e 4112 263e a0a3 363f 8252 713c
00000200: dcf6 82bd 3c83 ae3e f9a2 c23d 3986 1b3d
00000210: 8d91 f0bc 2534 403d dbc6 043d 1fa9 24bd
00000220: b956 01bf ec10 e43e 524a ecbd 812a b6bd
00000230: ea0e 2e3e 67b6 833c 5f0d 123d 095d 42bb
-0.10777522 0.13341719 -0.09179453 0.16560355 -0.20394507 -0.058567263 -0.111780696 -0.32009688
0.0747059 0.20678942 0.40591136 0.26326275 0.3071841 0.034718003 0.17559123 0.049126066
0.0142711885 0.0054479646 0.020637609 -0.13895278 -0.0048976424 -0.104908496 -0.1821804 0.02195778
0.034806393 -0.3069504 0.12161581 0.09975105 -0.038969565 -0.064968675 -0.01713735 0.5596212
0.6206466 -0.03294048 0.100420825 -0.07812027 -0.086792365 -0.26480225 -0.31066296 0.026473083
-0.18737291 0.016177954 -0.01130495 0.41710573 0.3642076 -0.008091377 0.09535801 -0.06352388
0.027266487 0.27885672 -0.23753464 0.09282721 -0.16622436 -0.45587987 0.04947425 0.52351654
0.14765424 -0.054634824 -0.54260314 -0.18740651 0.029182393 0.0009253372 0.051463097 0.045963388
-0.28125158 -0.15462947 0.1733455 -0.074283876 -0.30314636 -0.3088608 -0.3157161 -0.041914254
-0.25083268 0.14634183 0.072025865 0.37315774 0.8373386 -0.05601894 0.0072116707 -0.07306984
0.031465817 -0.012637591 -0.28255492 0.04109057 0.36640182 0.274115 0.005596736 0.3069664
0.46276578 0.058218483 0.16011749 0.84475416 0.042312823 -0.18081 0.19893757 0.0027452514
-0.18675123 -0.10433499 0.030455617 -0.2556978 -0.08796862 -0.058130752 -0.18262291 -0.10093284
-0.047540646 -0.0838396 -0.15361966 -0.0054310034 0.26463914 -0.36635512 -0.17293896 0.14608912
-0.5246412 -0.30452988 0.07722998 0.1764538 0.16205187 -0.043778237 0.5666988 -0.11884101
-0.13508686 0.40767246 0.03389547 0.17853427 0.27107266 0.16217901 0.7134342 0.014729144
-0.06394741 0.340845 0.09503741 0.0379698 -0.029366279 0.04692473 0.032416206 -0.04020035
-0.50522953 0.4454416 -0.11537613 -0.08894826 0.16997877 0.016078187 0.035657283 -0.0029657504

layer1.0.bias f4 [16]
00000000: 14f2 71be f14f 1e3e 3fd0 36be a91a 893d
00000010: 1770 7439 00be 013f adbe 153d 411b 69be
00000020: 89e3 253e a969 ae3a 2534 3c3b 6a39 ea3e
00000030: 40e7 b93e 110f 1b3e 92a0 003e a5ac 223d
-0.23627502 0.15460183 -0.17852877 0.06694538 0.0002331141 0.5068054 0.036558796 -0.22764303
0.16200079 0.0013306636 0.0028717604 0.45746928 0.36309242 0.15142466 0.12561253 0.039715428

layer1.2.weight f4 [16]
00000000: d553 353e f6fc 503f f143 253f 6bfd 333f
00000010: 352c 6a3e e65a b73e 6fa9 493e 09d2 1d3e
00000020: 284d 233f 81b1 303f b6eb fa3e 9d74 183f
00000030: 7d9e 9f3e 2862 2a3f 1471 483f db87 433e
0.1770776 0.8163599 0.64556795 0.7030856 0.22868426 0.35811538 0.1969354 0.15412153
0.63789606 0.6902085 0.49007958 0.5955294 0.31175604 0.66556025 0.78297544 0.19094793

layer1.2.bias f4 [16]
00000000: cc39 25bf ccd5 1bbe 23e1 d5bd 96ce 00be
00000010: 871a 24be 1e39 6a3d ebcf d9bc 46d9 0cbf
00000020: 7727 b8bd b61d 83be 1139 0dbe 7f4f fdbc
00000030: c484 06bd 940b 35be c663 04be 7a4b babd
-0.64541316 -0.15218276 -0.10443332 -0.12578806 -0.16025744 0.057183377 -0.0265884 -0.5501903
-0.08991902 -0.25608605 -0.137913 -0.030921696 -0.03284146 -0.17680198 -0.12928686 -0.09096427

layer1.2.running_mean f4 [16]
00000000: 0400 0000 64af b13e 0400 0000 520f 603e
00000010: 09c8 263d 1635 e93e b8a9 653d 0400 0000
00000020: 81b4 9c3e 1324 2a3e 8c33 f33d 6e47 ba3e
00000030: f5cd a63e a0a8 a63e ef9a 903e 9dfb 5c3d
6e-45 0.34704125 6e-45 0.21880844 0.040718112 0.45548314 0.05607006 6e-45
0.30606464 0.16615324 0.11875066 0.36382622 0.32579008 0.32550526 0.28243205 0.053950895

layer1.2.running_var f4 [16]
00000000: 0400 0000 9ee0 1a3e 0400 0000 0e4a e73d
00000010: f173 8d3c 3871 d93c 1578 f93b 0400 0000
00000020: 0a8c e93d 13f1 013e 8600 9c3d 2aad ec3c
00000030: 30c6 b03c 09ff 063e 9340 ea3d 0343 dd3b
6e-45 0.15124747 6e-45 0.11293422 0.0172672 0.026543245 0.007613192 6e-45
0.114036635 0.12689619 0.07617287 0.028891165 0.021578878 0.13183226 0.11438098 0.006752373

layer1.4.weight f4 [32, 16, 3, 3]
00000000: 6bd9 633e ca9b 2dbe 272c 433e cc7a 30bd
00000010: 6404 edbe 9277 00be 4787 7c3e c586 0bbe
00000020: 643b 47ba 7dd5 d93d 57aa 453d 0088 48bd
00000030: a466 713e 796c e7bd 4e69 69bd 9ea2 82bc
00000040: aeb6 9abd 463c 113a 19f1 2c3e e4e1 5fbe
00000050: 95b9 913c ba6a 563d 1698 3fbe e87d 173d
00000060: 3442 5d3e 0e25 a9bd 998a bcbd 7036 8c3d
00000070: 1cc5 283c 9acf 55bc 5047 50be 4765 8cbc
00000080: 68f4 073d f9dd 4d3d 2c89 ae3d 7a87 013d
00000090: 4d54 94bd 649b c1bd bfd4 88bd 1644 9ebe
000000a0: afbf bfbd 8b91 943b 102d 04bd 5a07 a3bd
000000b0: 8b18 f2bd f9d4 773d de36 733c 80a5 dabc
000000c0: bcc2 b8bd 0737 933d faf8 773c 781c f3ba
000000d0: 39b3 fe3b a2fb 033d afe2 64be 064b 413d
000000e0: 216c 51bd 2caa 5d3e d37d 4cbd e59b 44bd
000000f0: 7cf5 e03c 7d7b a13d a023 d6bc e093 b73e
00000100: f53e 87be 598a 5f3e 60bc 843d 140d 15bf
00000110: f47e 3dbe e89a c73e 5a62 29be 2967 90bd
00000120: 3f44 193e 1710 20bd e605 9f3c d744 2e3e
00000130: 6c8c 893d ed0a 273c e660 d6bc dd64 c6bd
00000140: ad5b 9ebc 70e2 c83c 4886 ae3b d4da 9d3d
00000150: 9828 6cbd efb4 b4bd 7072 003d 046d 913d
00000160: 3fd4 b9bc 3fab e23c 7b8c 84be ee2f 46bd
00000170: 697f 8a3d fb19 3e3e 831f ecbd 150c a53d
00000180: db52 9a3c a8b8 39bd 2132 3cbd b215 70be
00000190: a664 d7bd d680 5b3d 7397 1bbe f47f dabd
000001a0: d3e9 9c3d f485 26bc 2ef6 fd3c f9d0 05bc
000001b0: 9f51 aabc 5c36 2c3d 4c6f 74b9 849f 8b3e
000001c0: e1f1 483d dcb5 24bc 1763 cb3c 9dee bc3d
000001d0: a661 9c3c 3cf4 73bd f8d5 8bbd 1b37 993c
000001e0: 7cb9 943e a555 1abd 3065 99bc 1bbe 28be
000001f0: 9d95 c03d fa0c c13c 8954 10be 30da 0bbd
00000200: 9973 80bc cab5 9dbc d420 cf3c 57c0 ae3d
00000210: edce da39 35c4 653d 96c3 d4b9 4df3 b73d
00000220: 0287 44bc eda1 1ebd 8826 9bbf 8478 92bd
00000230: 4add 3abd 2dc5 163d 4823 67be 2d2c a3bd
00000240: 7376 1cbd 9420 9c3d d7d7 4a3e 4b32 3cbe
00000250: 1144 8cbe cd7f 613d 9079 7abe b9d1 4bbe
00000260: a2ab 24bd 6215 64bc 1c54 79bc 928f d1bc
00000270: 9cdb 19be 55b0 543e e739 de3c 1495 c3bd
00000280: 6a8b 173e 77c7 573d 05e4 d3bd 6d34 8a3d
00000290: 350e 1b3e 384b 3bbe 9220 48be 9ef9 78bd
000002a0: e2e2 18bd ffda f9bd dbb1 74bd dc5a 1ebd
000002b0: b624 4a3d 5430 11bc b2ba f63e 728a f6bd
000002c0: c0d8 17bd 34fc 0abe b1dd d13c 9164 91bd
000002d0: 1df5 35bd bc0e 063e 813c da3b e509 803d
000002e0: 670b f43c 114a 2ebd c59d 10bf ca39 a33c
000002f0: 693c 58bd 5d86 493d 71f8 23be 876e 53bd
00000300: bd69 9bbd 8784 a63d 3315 f9bb aafe 3ebc
00000310: a682 5cbc 8f3e 963c 232e 94bd 7c90 d83b
00000320: bd5a 073d 2fd6 fbbe 6703 153e 3ad4 083c
00000330: cbc0 983d e2e0 dc3d e6b9 37bd 9ceb f8bd
00000340: bd8b 86bd e49a 4e3e c42f 8bbe be39 c6be
00000350: 49cb a4bd 527d bcbe 134d cfbe 2221 0cbe
00000360: ef4c 81bd 359e 3e3d 50db a8bd be65 7c3e
00000370: 0c0e 96bd e80c febb afd0 bbbd c3b8 0bbe
00000380: bd22 d83c 5778 9b3c 5cb3 71bd 5924 023d
00000390: 2344 a2be c9ab 9fbd 851f 133e fd64 71be
000003a0: e348 1ebe 5724 f93c 5674 1a3e 3581 cb3d
000003b0: ef8a 77bb 1c75 373e 739e 01be 35cb 38bc
000003c0: 93cc b03e 9527 843c a084 47bd cb66 b2bd
000003d0: d1e9 c23d 1935 4b3d 8cea 42be bd64 df3d
000003e0: 0a11 5f3d b241 a53d e755 0dbe 3610 a2bd
000003f0: b2cb 603c 9044 5ebb 965b 58bb 30c5 3e3e
0.22250907 -0.1695396 0.19059812 -0.04308586 -0.46292412 -0.12545612 0.24660979 -0.13625629
-0.00076000975 0.10636423 0.04825815 -0.048957825 0.2357431 -0.112999864 -0.056985192 -0.015946683
-0.07554375 0.00055402925 0.16888846 -0.21863514 0.017788688 0.052347876 -0.1871036 0.036985308
0.21607286 -0.08259021 -0.09206123 0.06846321 0.010300901 -0.013049984 -0.20339704 -0.017138137
0.03319207 0.050260518 0.08522257 0.03162334 -0.072426416 -0.094534665 -0.06681203 -0.3091132
-0.093627326 0.0045339516 -0.032269537 -0.079603866 -0.118210874 0.06050584 0.014844624 -0.026690245
-0.09021518 0.0718823 0.015135044 -0.0018547913 0.00777283 0.032222398 -0.22352098 0.04719069
-0.05112851 0.21646947 -0.049924683 -0.048000235 0.027460806 0.07884882 -0.026140034 0.35855007
-0.2641522 0.21830119 0.06481242 -0.5822308 -0.1850546 0.38985372 -0.16541424 -0.07050926
0.1496744 -0.039077844 0.019411992 0.17018448 0.067162365 0.010195476 -0.026169252 -0.09687207
-0.019330824 0.024522036 0.005326066 0.07707754 -0.0576559 -0.08823573 0.031359136 0.07100871
-0.022684215 0.027669547 -0.25888428 -0.048385553 0.06762583 0.18564598 -0.11529448 0.08058945
0.018838337 -0.045342118 -0.045946244 -0.23445776 -0.10517244 0.053589664 -0.15194492 -0.10668936
0.07661786 -0.010163773 0.031001177 -0.008167499 -0.020790873 0.04204403 -0.00023311115 0.27270138
0.0490588 -0.010053124 0.024827523 0.09225199 0.019089531 -0.059559092 -0.06827921 0.018703034
0.29047763 -0.037679333 -0.018725008 -0.1647877 0.094035365 0.023565758 -0.14094748 -0.034143627
-0.015680121 -0.019251723 0.025284208 0.0853278 0.00041734372 0.05609532 -0.00040581514 0.08981953
-0.011995079 -0.038728643 -1.2121134 -0.07151893 -0.045621194 0.036809135 -0.22572052 -0.0796741
-0.0381989 0.07623401 0.19808899 -0.1837856 -0.2739568 0.05505352 -0.24460435 -0.19904222
-0.040202744 -0.013921114 -0.015217807 -0.025581155 -0.1502518 0.2077039 0.02712722 -0.09549919
0.14799276 0.05268046 -0.10346226 0.06748281 0.15142138 -0.18290412 -0.19543675 -0.06078493
-0.037325747 -0.12199973 -0.05973993 -0.03866087 0.049351417 -0.00886162 0.48189312 -0.12038125
-0.037071943 -0.1357277 0.025618406 -0.0709926 -0.04442321 0.13091558 0.0066600447 0.06251887
0.029790593 -0.042551104 -0.5649074 0.019925017 -0.052791987 0.049200404 -0.16012742 -0.05161908
-0.07588527 0.08130746 -0.007601404 -0.011657396 -0.013458883 0.018340377 -0.072353624 0.0066090208
0.03304552 -0.49186847 0.14552079 0.00835138 0.07458647 0.107850805 -0.04485502 -0.12154314
-0.06569622 0.20176274 -0.2718488 -0.3871593 -0.08046586 -0.36814362 -0.4048849 -0.13684514
-0.06313502 0.046537597 -0.082449555 0.24648187 -0.07326898 -0.0077530034 -0.091706626 -0.136447
0.026383752 0.018978281 -0.05900894 0.031772945 -0.3169261 -0.07796437 0.14367492 -0.2357368
-0.15457492 0.030412836 0.15083441 0.09936754 -0.003777202 0.17915767 -0.126581 -0.011278917
0.34531078 0.016132155 -0.048710465 -0.087110125 0.09517253 0.049611185 -0.19034785 0.10907886
0.05445961 0.08069171 -0.138023 -0.07913248 0.01372044 -0.0033915378 -0.0033013574 0.18629909

layer1.4.bias f4 [32]
00000000: 6263 d03e ac9e 323e a1c6 573d 0995 f53d
00000010: b735 f63e 75bd ee3e ec99 b03e 19ca 013f
00000020: 0ebe 7c3d 51c1 1c3e 6df6 fa3d c2f2 943e
00000030: 481e 2f3e 68ed f73e 405b a53e 2791 ac3e
00000040: 2450 ec3e c306 4b3e 1d12 783e 49a6 a43d
00000050: 9827 6f3e 5083 903d a566 193e 3220 053f
00000060: bb72 c83d 06b9 813c ffc4 053e 5cc6 093e
00000070: 7c6c f63d e46b b13f 8b49 1c3e b638 283f
0.40700823 0.17443341 0.05267966 0.11991317 0.48087856 0.4662892 0.34492433 0.50699
0.061704688 0.1530812 0.12254033 0.2909146 0.17101395 0.48423314 0.3229618 0.33704492
0.46154892 0.19826798 0.2422566 0.08039529 0.23354948 0.07056296 0.14980562 0.5200225
0.09787508 0.015835296 0.1306343 0.13454574 0.120324105 1.3861051 0.1526243 0.65711534

layer1.6.weight f4 [32]
00000000: 5866 113f b3af 523f 64c5 1c3f 25a4 1e3f
00000010: 236d 133f 1dc0 1f3f be2a d03e 0796 223f
00000020: 6fea 053f 28fa f03e b0d4 503f e5f0 363f
00000030: 6018 303f 5efb 043f 6790 1f3f 605d 1e3f
00000040: 0d3e 0d3f 8d07 1f3f 7ef2 173f e145 3f3f
00000050: 8612 213f fa74 493f aa84 1d3f 409c 313f
00000060: 16f6 1c3f bd6e 163f a163 0f3f 0e51 133f
00000070: 8c4a 1f3f 8c7f 4f3f c199 333f 4d4e 3c3f
0.5679679 0.82299346 0.61238694 0.61969215 0.57588404 0.62402517 0.4065761 0.63510174
0.5231084 0.47065854 0.81574535 0.71461326 0.68787193 0.51946056 0.62329715 0.6186123
0.55172807 0.62120897 0.5935439 0.74716 0.6291889 0.7869412 0.61530554 0.69379044
0.61313 0.58762723 0.56011397 0.57545555 0.62223125 0.81053996 0.70156485 0.7355698

layer1.6.bias f4 [32]
00000000: dd44 a43c 56e7 b3be 34a5 0abf ea6e 3b3e
00000010: d5e3 debd cc07 34be 5157 82be cbf9 40bf
00000020: 427f d83d 6192 58bf 903e 47be 4a60 b8be
00000030: 518c c83d dbdc dcbc fd9f 5dbd be92 eabe
00000040: 595f 27bc 69ba b9be f619 11bf 0b7a 45be
00000050: deec 4cbe 5773 f9bd f326 56be 5cc1 ad3e
00000060: 43d9 7cbe fd90 85be 5e51 88be cf7b 203d
00000070: 2dca 023e 6d28 06bd 4841 a7be 46db 843d
0.020052368 -0.35137433 -0.5415833 0.18304029 -0.10883299 -0.175811 -0.25457242 -0.75381154
0.105711475 -0.84598356 -0.1945746 -0.36010963 0.09792388 -0.02696078 -0.054107655 -0.4581508
-0.010215604 -0.36275032 -0.5668024 -0.19284837 -0.20012233 -0.121802025 -0.20913295 0.33936584
-0.24692254 -0.2608718 -0.26624578 0.039180573 0.12772436 -0.032753397 -0.32666993 0.064871356

layer1.6.running_mean f4 [32]
00000000: f869 803f c61f c73f 3e1b 873f 92bd 753f
00000010: d98f 0a40 8e3b ac3f f881 a03f b898 f23f
00000020: 1c91 9a3e 42c0 153f c9aa 9b3f cc09 a93f
00000030: 017b 9a3f 2a18 c83f f823 9e3f 0535 cf3f
00000040: 1f76 e73f 625c b73f ed79 963f d0cc ce3f
00000050: c34d 883f 2bda 333f 04c1 793f a7de cb3f
00000060: 37ce 633f 27e0 1c3f 81a1 a23f c328 983f
00000070: 7ee7 3e3f 6f20 6a40 3452 3b3f cd07 ff3f
1.0032339 1.5556571 1.0555189 0.95992386 2.1650298 1.3455675 1.2539663 1.8952856
0.30188835 0.5849649 1.2161494 1.3206115 1.2068788 1.5632374 1.2354727 1.6188055
1.8082923 1.4325068 1.1755959 1.6156254 1.0648731 0.7025477 0.97560143 1.5927323
0.88986534 0.6127953 1.2705537 1.188744 0.7457198 3.6582296 0.73172307 1.9924256

layer1.6.running_var f4 [32]
00000000: 75d5 cc3e d4f6 5c3f 1ac5 073f 2d99 b33e
00000010: ec96 903f 5c84 573f ce44 9c3e 72ff e23e
00000020: f4cb 603d 991b 8b3e a065 9f3f f893 973f
00000030: 7139 ec3e 2a5a 133f c362 0e3f f5e5 f93e
00000040: acf6 783f fba1 1c3f fca3 b03e bdcd 1b3f
00000050: b78f a43e 1c30 863e 3a05 823f f976 8a3f
00000060: 67aa 8b3f 17fc bc3e 152b f93e b0e8 e93e
00000070: 4d76 773e dc4c b63f 6c13 003f 45e5 2e3f
0.40006605 0.8631413 0.5303513 0.350778 1.1296058 0.8418634 0.30521244 0.44335514
0.054882005 0.27169493 1.2452888 1.1842031 0.46137574 0.57559454 0.5561945 0.48808256
0.9725139 0.6118466 0.3450011 0.60860807 0.32140896 0.2620858 1.0157845 1.0817558
1.0911378 0.3691108 0.4866568 0.4568534 0.24166222 1.4242206 0.50029635 0.6831859

layer2.0.weight f4 [32, 16, 3, 3]
00000000: 8cd1 0dbd 8738 d63b f92e 00bd 9f54 4f3c
00000010: b593 9f3e 642e 1a3c e6c3 82bd 2686 dd3c
00000020: 7308 e73d 2598 823a 7343 37bd ec73 adbd
00000030: af97 983d 854a b7be 3928 67bb 0b67 903d
00000040: 90f1 053a 54c2 a03c 7df4 b4bd fede 8dbd
00000050: 5736 bebd 4baf 223d 61ea 3dbb 1416 3f3d
00000060: 4161 e23d 39e8 0d3e 9c9a 863d c436 403c
00000070: 664c 723d 194b 0a3d d837 84bd d230 c03d
00000080: d149 ddbc 765b 24bd 9b94 19be d837 ab3d
00000090: 21e6 b63d fc67 a23d 9086 bdbd 6b8e ab3c
000000a0: a301 3b3d 4226 11bd f84c d03c b116 e7bd
000000b0: 89a4 943d a159 813d d08e 603d 3fed b5bc
000000c0: c1c4 ef3d 46f5 7cbe 8483 cabd a703 3c3d
000000d0: d301 9e3d 8980 9f3c b61c 783d 3916 903c
000000e0: a60b d63b e52b ab3c 5899 953c 9c68 76bd
000000f0: 5816 8f3d 9411 fdbd bf15 16bc cc99 1c3e
00000100: ab69 823a b869 103d 603f 653e 73d9 023e
00000110: 4c13 e0bc 2b54 6abd 8e0c 95bc 14d0 3a3c
00000120: a230 aebd e507 01bc f889 dcba 1d14 2dbd
00000130: a55e 62bd d60c 213d e7b4 cc3d a3c5 9d3d
00000140: 009d 813d 98c8 c13d a2be 743d 5c1b d1bc
00000150: a912 353d 41e2 b4bc 0d62 513d 4013 753d
00000160: 585e 81bd b4ad 8dbd 2741 323b 0ad3 733d
00000170: b4ab 39bc 9a70 7bbe a61f fbbd 17af fbbc
00000180: d600 5c3d ab7e 373e 5b11 87bd 1435 08bd
00000190: ef54 2c3d ed0a 56ba dee9 0e3e f90d f9bd
000001a0: 4225 9bbd 4be5 213d 217b c0be b35f d33d
000001b0: 83ee 45bb b02b 183d 874b 533c 6b70 313e
000001c0: bb58 86be 3afd 473b ecb9 a73c b590 04be
000001d0: 4fdd 8f3d 35c3 82bc b5ec cc3d 5872 b13c
000001e0: d8ef a83d 58f1 fdbe f506 0fbc eb86 103c
000001f0: ad80 36bd 9553 1e3d 8560 fbbd 344e 1b3d
00000200: 650f f3bc 5915 bc3c f538 d93d 51f2 9fbd
00000210: fcbb 9fbd 4c00 ab3d 20e1 973b 45c2 b4bd
00000220: 5757 ad3d ce33 993d 2a52 a0bd e39b ef3d
00000230: 1e78 113d f249 0bbe c263 153d 6245 f5b9
00000240: a81d 39bd e703 1fbd 3aea f2bc 97bc 633d
00000250: 065a cc3d 9e86 f03b b569 3ebd 3a19 d83d
00000260: 6e96 eabd 436a 9f3d 9340 173d 635d f7bc
00000270: d110 a0bd 7c11 e7bd 2719 39bc 9588 56be
00000280: a79a 48bc 8364 263d 0d41 713d 35b0 24bd
00000290: 4294 edba 7a50 e53d 9467 133d a04f 8bbd
000002a0: cdd3 ed3d 8843 3b3e c8a3 b83a 5c80 dd3c
000002b0: 64ac 863d e3d2 4ebc bf48 5cbd 2cb5 573d
000002c0: 59eb 02bd e93f aabc f005 463e 19ca 9dbc
000002d0: d49a 8e3d 15df 52bc 3801 c8bc d8ff 34bd
000002e0: eb2b 8c3c 9b87 51bd 658c b23e 9445 7a3d
000002f0: f8a4 3cbd 335a 093d 6798 5c3d 7247 b9bb
00000300: 8504 793d e2e4 32be 329a d0bb 3420 9e3d
00000310: 485d aabe f214 853d f570 b1bb 7ea7 60bc
00000320: d6b6 3c3d e3fe 173e b795 8cbd 1f6c 00bd
00000330: 60b5 6d3e 244c 6abd 2b15 383d 74b9 87bc
00000340: fcf1 5f3d 2274 82bc 40f6 e33c 37cd 8b3c
00000350: 2009 533d 7827 4abe a4bc ce3d 6e2f c13c
00000360: 9316 3bbc 7f26 963d 60a5 6f3c e11e 623d
00000370: 3590 eabd d6fd 9f3b ea9e 803d 0cba c9bd
00000380: a8ef 313d 8636 fe3b 48ab f4bc bda5 adbc
00000390: 6e17 e63c 6453 d3b9 68fc 0fbb ee4d f43d
000003a0: caf7 373e bc3a 9dbc c357 003d 054a 7cbd
000003b0: e1dc 4b3c 9af9 193e 3b17 333e 6576 1a3d
000003c0: 35a5 203d 202b 55be 808c 873c abe4 bb3b
000003d0: ba8f 2fbc 56ae 073d 442a 263d 9a6e 5abd
000003e0: e4e9 ce3c 116b f03d 95fd 243d 0e89 783c
000003f0: e971 083d 72a8 6fbc dfdf e33c c714 8fbd
-0.034623668 0.0065375003 -0.031294797 0.012654453 0.3116738 0.009410474 -0.06385021 0.027041506
0.112809084 0.0009963555 -0.04474206 -0.08469376 0.07450806 -0.3579904 -0.0035271777 0.07050904
0.0005109543 0.019623913 -0.08835695 -0.06927298 -0.09287708 0.039717954 -0.0028978812 0.046651915
0.11053706 0.13858117 0.06572458 0.011731807 0.05915489 0.033763025 -0.06455964 0.09384312
-0.027012737 -0.040126286 -0.14998095 0.08360261 0.08930612 0.0792999 -0.092541814 0.020941934
0.045655858 -0.035436876 0.025427327 -0.11283625 0.07257945 0.063159235 0.054823697 -0.022207854
0.1170745 -0.2470294 -0.09888366 0.04590192 0.07715192 0.01947047 0.060574256 0.017588722
0.0065321503 0.020894954 0.018261597 -0.060158357 0.069866836 -0.123568684 -0.009160458 0.15293044
0.0009949704 0.03525707 0.22387457 0.12778263 -0.027352951 -0.057209175 -0.018194463 0.011402149
-0.0850537 -0.007875417 -0.0016825786 -0.04225551 -0.05526604 0.039318882 0.09995442 0.07703712
0.063287735 0.09462088 0.059752114 -0.025525741 0.04420725 -0.022080543 0.0511189 0.05983281
-0.06316823 -0.06917897 0.0027199478 0.059527434 -0.011332441 -0.24554673 -0.12261896 -0.030723138
0.053711735 0.17919414 -0.06595107 -0.033253744 0.042073186 -0.000816508 0.13956401 -0.12160868
-0.07575466 0.03952531 -0.3759394 0.103209876 -0.0030201979 0.03715104 0.012896425 0.1732804
-0.2623957 0.0030515925 0.020474397 -0.12945826 0.07024633 -0.015962223 0.10006086 0.021660969
0.082488716 -0.49598193 -0.008729686 0.008821229 -0.04455631 0.03865393 -0.12274269 0.037916377
-0.029670427 0.022959398 0.10606567 -0.0780989 -0.07799527 0.08349666 0.0046349913 -0.088261165
0.084639244 0.07480584 -0.078281716 0.11699655 0.035514943 -0.13602427 0.03647209 -0.00046781736
-0.045194298 -0.03882208 -0.029652704 0.055599775 0.09978108 0.0073402664 -0.04648753 0.105516866
-0.114544734 0.0778394 0.036926817 -0.030195897 -0.078157075 -0.11282632 -0.011297501 -0.2095054
-0.012243903 0.0406232 0.058899928 -0.040207107 -0.0018125849 0.1119699 0.03598745 -0.06802297
0.116126634 0.1828748 0.0014086897 0.027038746 0.0657585 -0.0126235215 -0.053780314 0.052663013
-0.031962726 -0.020782428 0.19338202 -0.019261407 0.06963125 -0.01287057 -0.024414644 -0.044189304
0.017110785 -0.051154714 0.34872738 0.06110151 -0.046055764 0.033533286 0.05385628 -0.005654269
0.060795326 -0.17470124 -0.0063660378 0.07720986 -0.33274293 0.064981356 -0.005415077 -0.013711808
0.046072803 0.14843325 -0.06864493 -0.031353112 0.2321372 -0.05720152 0.044942062 -0.016567923
0.054674134 -0.015924517 0.027827382 0.017065628 0.051522374 -0.19741619 0.10094574 0.023582187
-0.011418956 0.07331561 0.014626831 0.05520523 -0.114532866 0.0048825545 0.062803105 -0.09849939
0.043441445 0.0077579645 -0.02986683 -0.021197194 0.028087344 -0.00040307187 -0.0021970514 0.119289264
0.17965618 -0.019193046 0.031333696 -0.061594028 0.012442798 0.15036622 0.1748933 0.037710566
0.039220054 -0.20817232 0.016546488 0.0057340465 -0.010715419 0.033125244 0.04056765 -0.053328134
0.025258012 0.11739171 0.040280897 0.015169395 0.03331176 -0.014627563 0.027816711 -0.06986385

layer2.0.bias f4 [16]
00000000: 878b 97bb bba2 1b3e 9ea4 3a3e 7d87 793e
00000010: dbb9 6f3e 962b 603d e55f 1f3d f833 4ebe
00000020: a86f 3b3e 3575 cd3e 6d01 c6bd ce78 913e
00000030: 8114 bf3e 6414 e03d 6c50 f03e 3578 5e3e
-0.0046247873 0.15198795 0.18226859 0.24368091 0.23410742 0.054729067 0.03890981 -0.20137012
0.18304312 0.40128484 -0.09668241 0.2841248 0.3732033 0.10941389 0.46936357 0.21725543

layer2.2.weight f4 [16]
00000000: 475f b53e 5d2e e53e 569b f73e 0b12 4a3f
00000010: 4ada 283f ccd1 353f 623d 763f bc45 bc3e
00000020: a145 333f bb62 643f d071 4d3e 07a3 e63e
00000030: 747a 2c3f 773b 5d3f b18c 493f 6040 1b3f
0.35424253 0.44761935 0.483607 0.7893378 0.6595808 0.7102325 0.9618741 0.36771953
0.7002812 0.8921315 0.20062947 0.45046255 0.6737435 0.8641886 0.78730303 0.60645103

layer2.2.bias f4 [16]
00000000: c4e3 4bbe 6166 523c e8b7 b23d 2dbc 9f3e
00000010: c46c a23e 6560 8cbe 57b1 52be d9eb 03be
00000020: 91ed 69be dd38 773d d828 04be a55f babd
00000030: 74aa 33bc 758f b7bc f733 f83e 2740 6d3c
-0.19911104 0.012841792 0.087264836 0.31198254 0.31723607 -0.27417293 -0.20575462 -0.12882937
-0.2284453 0.060356963 -0.12906206 -0.09100274 -0.010965932 -0.022407273 0.48477146 0.014480627

layer2.2.running_mean f4 [16]
00000000: e8b6 453e d115 6a3e 8f1b f03e 073e b23e
00000010: 5214 0e3f e74d 0f3f 64cd 863e 5d40 4c3e
00000020: efa8 893e bebc 233f ecd7 3b3e b90f 1c3e
00000030: 9ab0 fa3e 8129 813e 8e50 c73e 438a ea3e
0.19308054 0.22859885 0.46896026 0.34812948 0.55499756 0.55978245 0.26328576 0.19946428
0.268867 0.6395987 0.18344086 0.15240373 0.4896286 0.25226977 0.38928646 0.4580861

layer2.2.running_var f4 [16]
00000000: 774b a33d 4e65 ce3d a2f1 933e 31d6 b83e
00000010: 1f10 753e 085b 993e 67b1 ef3e 824b c13d
00000020: 536b 173e 211f e23e 459d b63d e938 083e
00000030: d31d bc3e 985f 003e 1a87 a93e 24aa 043e
0.07973378 0.10077916 0.2889529 0.36100915 0.23931931 0.29952264 0.46815035 0.0943823
0.14787035 0.44164374 0.089167155 0.1330296 0.36741504 0.12536466 0.33110887 0.12955528

layer2.3.weight f4 [16, 3, 3, 3]
00000000: 8a84 023e ec4a 143d 03af d03b 8534 aebb
00000010: cdb7 7fbe 9f77 f8bd 4eca bdbc c577 12bd
00000020: 51ca b6bb 0eb1 34be d2e5 a0bd 7ff4 ea3d
00000030: 1cd6 31bc 8122 09be 1627 a8bb fdbb 4dbd
00000040: 10f2 54bc 9114 083e 80bc 8a3e a909 953e
00000050: 6e74 48be bf9a f5bc 3465 bdbd 68ce 9c3d
00000060: db6b 34bd 77f0 56be a943 8b3d 3304 c0bd
00000070: 31d4 1fbd 8618 22bd 61ad 523a 3287 b6bc
00000080: 7ff2 efbd e949 b8bc 4c7a b13c b78f bebd
00000090: 52b9 433d c8de fdbc 8600 303d 50ae 9dbc
000000a0: 1aa6 5fbc 6e04 2d3c 563b 43bd 3419 d83b
000000b0: e64a 28be 8e1a ec3c 305a 483b 3308 44bc
000000c0: 053c 1abd c860 1f3e b28a fa3e b139 c2b9
000000d0: 8324 d53d a429 943e 6c84 d63c a9e6 e2bd
000000e0: 2ff9 8d3d ce65 aebc 6d29 b63c ddf0 bdbe
000000f0: efae 673d e1a0 d13d 9048 8f3d b601 093c
00000100: 8179 24be edfc aebe 89c7 2c3e 9f8e 923d
00000110: 566d 99bc 175d 843c bcdc 5c3d ebe5 27be
00000120: d166 55bd e8c3 7ebd 9131 833e 34ef 83bd
00000130: eea5 aaba 9eb3 4cbe 9f68 fdbc e93d 0f3d
00000140: 5768 d9bc 27cd 7a3c 0766 ce3c 7d1a 3bbd
00000150: 8b54 10be c38c 6abd 2c8a 4b3e 8ad5 a33c
00000160: c3f4 183d f644 acbc 311d b0bc cc23 4f3e
00000170: 8f04 923d 2794 8f3c 7613 00bd 7ee6 81bd
00000180: cb2a 3cbc 12a7 1e3d 98e4 373b 9abe 573d
00000190: c9b4 eabe 07f5 803a 77c3 8c3c 02e8 e6bd
000001a0: d6d9 503d d84e 30bd af74 e9bc 3d34 8f3d
000001b0: 08b1 703c 2869 423e 907e c6bd 3a80 9a3d
000001c0: a562 f53c 59bd 75be 6f93 1fbc f9de d33d
000001d0: 89da 72bd f073 2fbc 349f d53d e510 253e
000001e0: 42de 59be 29c5 473d 57f9 99bc 7dd6 2dbd
000001f0: 4fa7 ab3d 2656 5dbd bea3 0c3d 16ba 003e
00000200: f5a6 b5bd d27e 8fbb 57c9 613d 8399 70be
00000210: 6ab1 a3bc 2f49 22bd b820 173d d83f d13b
00000220: 45e6 193c b268 4fbc 2342 0ebe dbf5 34be
00000230: 661e 05be c9a3 febd 307e c1be bac2 4c3c
00000240: 9c82 8abd 87f8 293c 5f8e ad3d ed7d 8c3d
00000250: 1822 7cbd 5047 43bd 1e1d 3c3d 0d4a 283e
00000260: d662 b6bd 3e90 d8b8 f532 f93c c1d1 11bd
00000270: 3f04 673d 8a8a b9bd 83d4 d7bd 1f97 12bd
00000280: d9ae 83bc b607 c9bd 666d 363b ac22 81be
00000290: 7c8a 57bd 3d16 3cbb c747 583d 85ee 7abe
000002a0: 7d63 3c3d b1ee b93d b44b 853d 3280 0bbc
000002b0: cba1 3cbe 91a7 bebd 3011 38bd 6960 5a3d
000002c0: fed1 a23d 83dc 073e ba8d e73d e25c 8d3d
000002d0: f55a bdbd 3d56 553d bc03 77be 80e2 483d
000002e0: 0688 9c3d 8aa7 9d3d 62b5 a53d 4039 a03d
000002f0: 239a 273c e983 e23d 6e1c 32bd 274a 3dbd
00000300: 3392 98bd 1746 72be d9fb 35be 798c 0bbd
00000310: a79a a23d 0a41 87bc 17cb 6c3d d6ed cdbd
00000320: 9a5e 07be 71cc c43d 2b82 bdbe 7390 6bbe
00000330: 2330 a9bd f6fa 8fbd 4128 aa3d d2c7 8d3d
00000340: 850d 253d b23e 423e 9bc2 853d 3cf7 213c
00000350: bdc6 0fbe 88eb 383c edef 5dbe ff4d 9bbd
00000360: 5618 c4bc cca3 f4bc ac7a 15bd 6eb6 19bd
00000370: 9639 8f3d b5fe c2bd 9ea7 a5bd 3155 d8bd
00000380: 43d3 1f3d cb87 533d 613d c83d b740 b83d
00000390: 228b f2bd 2b84 ddbd 2879 9d3c 63fd 0bbc
000003a0: 47f7 c3b8 5aa7 18bd 8682 3f3c cb11 2abb
000003b0: ef66 94bc 1ab1 c93d 6523 a83e 6c71 04bd
000003c0: fb7a 55bd 7a97 383d 03d0 0abe f5ba ee3c
000003d0: 1dbd 58bc 3f32 bd3c d297 1d3e 9c22 1bbe
000003e0: 7220 d6bd 88b0 9f3a 1c78 7dbe f873 42bb
000003f0: 50e1 683d 7d47 c03d e4c5 153c 3614 4d3d
0.12745872 0.036204264 0.0063685193 -0.0053163194 -0.24972458 -0.12132191 -0.023167755 -0.035758752
-0.005578317 -0.17645666 -0.07856335 0.11472415 -0.01085427 -0.13392068 -0.0051316125 -0.050228108
-0.012997165 0.13289095 0.2709694 0.29108933 -0.19575664 -0.029981015 -0.092478186 0.07656556
-0.04404817 -0.20990168 0.068000145 -0.09375801 -0.03902072 -0.03957417 0.00080367 -0.022281263
-0.11716174 -0.02249618 0.021664761 -0.09304755 0.047784157 -0.03099002 0.04296925 -0.019248158
-0.013650442 0.010560138 -0.04766401 0.0065948013 -0.16434821 0.028821256 0.0030571334 -0.0119648455
-0.037654895 0.15564263 0.4893394 -0.00037045547 0.10407355 0.2893802 0.02618619 -0.11079151
0.069322936 -0.021288779 0.02223655 -0.37097827 0.056563314 0.10235763 0.06996262 0.008362224
-0.16061975 -0.34177342 0.16872992 0.07156109 -0.018728893 0.01615767 0.053921446 -0.163963
-0.052100006 -0.06219855 0.25623754 -0.06442109 -0.0013019422 -0.19990394 -0.030933676 0.03497115
-0.02653901 0.015307701 0.025195135 -0.045679558 -0.1409475 -0.057263147 0.19876927 0.019999284
0.037342798 -0.021028977 -0.021498295 0.20228499 0.07129776 0.0175267 -0.03126856 -0.06342791
-0.011484812 0.03873355 0.0028059836 0.052672006 -0.45841053 0.0009838649 0.017183049 -0.11274721
0.050988995 -0.04304394 -0.028498022 0.069923855 0.014690645 0.18985426 -0.09692109 0.075439885
0.029954264 -0.23998012 -0.009739741 0.10345263 -0.059290443 -0.010708794 0.10430756 0.16119726
-0.21276191 0.04877201 -0.018795652 -0.04244088 0.08381521 -0.054037236 0.034335844 0.12570986
-0.08869735 -0.004379132 0.055123653 -0.2349606 -0.019982059 -0.039620575 0.036896437 0.0063857846
0.009393279 -0.012659239 -0.13892417 -0.17671911 -0.12999877 -0.12433583 -0.37791586 0.012497598
-0.06763193 0.010374195 0.08474421 0.06859956 -0.06155595 -0.04767543 0.045926206 0.16434498
-0.0890557 -0.0001032655 0.030419806 -0.035600428 0.056400534 -0.09059627 -0.1053858 -0.03578865
-0.016074585 -0.09815924 0.0027836203 -0.25221765 -0.052622303 -0.0028699778 0.052802827 -0.2450505
0.045993317 0.0907873 0.0650858 -0.008514451 -0.18421094 -0.093093045 -0.044938266 0.0533146
0.07950209 0.13267712 0.11306329 0.069024816 -0.09245864 0.052084196 -0.24122518 0.049044132
0.07643132 0.07697971 0.08091237 0.078234196 0.01022962 0.11060316 -0.043484144 -0.046213295
-0.0744976 -0.2365955 -0.17771854 -0.034069512 0.07939654 -0.016510505 0.05781087 -0.10055129
-0.13219681 0.096093066 -0.37013373 -0.23004322 -0.082611345 -0.07030289 0.08308459 0.06922878
0.040296096 0.18969229 0.06531259 0.009885605 -0.14040656 0.011286624 -0.21673556 -0.07583236
-0.023937386 -0.02986326 -0.036493942 -0.037527494 0.069934055 -0.09521238 -0.08088611 -0.10563124
0.039019834 0.051643174 0.09777332 0.089967184 -0.11842944 -0.10816225 0.01922281 -0.008544299
-9.3443836e-05 -0.037268974 0.011688834 -0.0025950547 -0.018115489 0.098482326 0.32839504 -0.03233473
-0.052119236 0.045066334 -0.13555913 0.029141882 -0.013228682 0.023095248 0.15389946 -0.15149921
-0.10455407 0.0012183348 -0.2475285 -0.0029671174 0.0568555 0.09388635 0.009141419 0.050068103

layer2.3.bias f4 [3]
00000000: 6589 0a3e 78df 273e 9906 2d3e
0.13528974 0.1639384 0.16897048

layer2.5.weight f4 [3]
00000000: 3b03 073f f0c6 4c3f 8165 7a3e
0.52739304 0.79991055 0.24452783

layer2.5.bias f4 [3]
00000000: 3029 f6bc f8c4 dabd 9dc8 ccbd
-0.030048937 -0.106821 -0.099992014

layer2.5.running_mean f4 [3]
00000000: 061c d03e 47c7 b53e 8674 8e3e
0.4064638 0.355036 0.27823275

layer2.5.running_var f4 [3]
00000000: 7523 0a3e 3e47 443e a957 db3d
0.13490088 0.19167802 0.10710079

layer2.6.weight f4 [3, 1, 3, 3]
00000000: d902 c43d 4069 443e 0efa b13d b742 4c3e
00000010: c096 573e 3846 193d 8f01 923d a3b9 cfbd
00000020: 083d 0dbd 709c 97bc 82a0 8b3d fa2d 893d
00000030: e458 c5bd cdb9 433e d653 6f3e 0126 83bd
00000040: 8a7c bfbc 4fb4 0f3e 0321 343d d75e 2c3e
00000050: 78cf 6e3d 55a7 8d3e 817c bc3e f648 28bd
00000060: bfc0 d33d 378f eabe bd29 e6be
0.09570856 0.19180775 0.08690272 0.19947325 0.210536 0.03742048 0.071292035 -0.10142829
-0.034482032 -0.018507212 0.06817724 0.066982225 -0.09636095 0.19113846 0.23371825 -0.06403733
-0.023374815 0.14033626 0.043976795 0.16833054 0.058303326 0.27666727 0.3681374 -0.041085206
0.10339498 -0.4581239 -0.4495372
